logs/epoch=92-step=9300.ckpt (torch, 248467 bytes, 33 tensors)

model.encoder.weight f4 [32, 1]
0	0x3f6cd18a	0.9250723
1	0x3f3f7b81	0.74797827
2	0xbf1ffb4f	-0.6249284
3	0x3ed55ed7	0.4167392
4	0x3e93ffa3	0.28905973
5	0xbe7fa627	-0.24965726
6	0xbd370761	-0.04468477
7	0xbf4ef40d	-0.8084114
8	0x3e88b192	0.26697975
9	0x3f0452d8	0.5168891
10	0xbeb94033	-0.36181793
11	0x3f4d5149	0.80202156
12	0xbf00ab1d	-0.502611
13	0x3f70f862	0.94129
14	0xbf75c8ee	-0.9600972
15	0xbf06e50f	-0.52693266
16	0xbe9f3e25	-0.311021
17	0xbd4047f3	-0.046943616
18	0x3f3c1ba0	0.7347965
19	0x3d2a5e56	0.041593872
20	0xbf3eeda4	-0.7458136
21	0xbf2c92ff	-0.674118
22	0xbf45a98c	-0.77211833
23	0x3e51e4ef	0.20497487
24	0x3eecfb72	0.46285588
25	0x3ee3c701	0.44487765
26	0x3f30b22f	0.69021887
27	0xbe2ee4a4	-0.17079407
28	0x3f2541c3	0.6455347
29	0xbf1796f1	-0.59214693
30	0x3e153956	0.14572653
31	0xbf4c7d3f	-0.7987861

model.encoder.bias f4 [32]
0	0xbe0136dd	-0.12618585
1	0xbda82dbf	-0.082118504
2	0x3eefa299	0.4680374
3	0xbeb631e8	-0.3558495
4	0x3f09e17e	0.538597
5	0x3e4c0a09	0.19925703
6	0xbe7fbd4d	-0.24974556
7	0xbf3816a7	-0.71909565
8	0x3f339b46	0.70158803
9	0x3f0135dd	0.50472814
10	0x3d9a8277	0.075444154
11	0x3f116dbc	0.56808066
12	0x3e5781d5	0.2104562
13	0xbea5eee7	-0.3240883
14	0xbe81efab	-0.25378165
15	0xbf6ac0f0	-0.9170065
16	0x3e14afb7	0.14520155
17	0xbeea378f	-0.45745513
18	0x3dd4b977	0.10386937
19	0xbf780ea3	-0.96897334
20	0xbf1495f3	-0.58041304
21	0xbe922bdb	-0.28549084
22	0xbf3dde9e	-0.7416781
23	0xbe72c238	-0.23706901
24	0xbdf6ba7f	-0.1204729
25	0x3f3c903a	0.7365757
26	0x3e01d072	0.12677172
27	0xbeaf5408	-0.34243798
28	0x3ea4f3b4	0.3221718
29	0x3d9901ae	0.074710235
30	0x3e61c60b	0.22048204
31	0x3e9d8683	0.30766687

model.node_embeddings.emb f4 [207, 32]
0	0xbdc2198b	-0.09477528
1	0x3e946f6b	0.28991255
2	0x3ea1f575	0.3163258
3	0x3e7e753d	0.2484941
4	0xbeda3e69	-0.4262574
5	0xbe914461	-0.2837248
6	0x3d9bdcde	0.076104864
7	0xbe87ef9d	-0.26549998
8	0x3e8012df	0.25014398
9	0xbe1adaef	-0.15122579
10	0x3eadb804	0.33929455
11	0xbf0a5e69	-0.5405031
12	0xbcd83716	-0.026393455
13	0x3c98828e	0.01861694
14	0x3cae1895	0.021251956
15	0x3dd6ba82	0.10484792
16	0xbec479a5	-0.38374057
17	0x3c222bf8	0.009898178
18	0x3d32dcd7	0.04366764
19	0x3c92fb13	0.017941987
20	0xbe75d386	-0.24006471
21	0x3da89f1a	0.08233471
22	0x3d31c22e	0.043398075
23	0x3e04d415	0.12971528
24	0xbeba26ff	-0.36357877
25	0xbec940dd	-0.393073
26	0x3d8f772e	0.070051536
27	0xbd91c172	-0.07116975
28	0x3c7c6bf4	0.015406597
29	0x3e9682cc	0.29396665
30	0xbe11505b	-0.1419081
31	0xbe0bd192	-0.13654163
32	0x3e4260df	0.18982266
33	0x3e09298e	0.13394758
34	0x3da83a26	0.08214216
35	0xbe6669fe	-0.2250137
36	0xbdb103a5	-0.08643273
37	0x3d2bc3d5	0.041934807
38	0x3dab8e3f	0.08376741
39	0xbea19ff0	-0.31567335
40	0xbe1e9479	-0.15486325
41	0x3f0b489e	0.5440768
42	0x3e0c9ea4	0.13732392
43	0x3e9deef1	0.3084636
44	0x3c40e9db	0.0117745055
45	0x3ca39a31	0.019970985
46	0xbde9cbd1	-0.11415828
47	0x3dd77ef5	0.10522262
48	0xbe262ca1	-0.16227962
49	0xbe455ec6	-0.19274434
50	0x3dbaa991	0.091143735
51	0xbc7f1ba4	-0.015570555
52	0x3e582a71	0.2110994
53	0xbe5ba043	-0.21447854
54	0x3ce9f11c	0.028557353
55	0xbe3836c6	-0.17989644
56	0x3ccbfefa	0.024901856
57	0x3deeca23	0.11659648
58	0x3e3e52ee	0.18586323
59	0xbdbb0afb	-0.09132954
60	0x3e023d80	0.12718773
61	0x3d2d60d3	0.042328667
62	0xbd93c17f	-0.07214641
63	0x3edb1699	0.42790678
64	0x3d365c16	0.044521414
65	0xbd1b6bc3	-0.037944566
66	0x3d0c7575	0.034291703
67	0x3e167289	0.14692129
68	0xbd309eab	-0.043120068
69	0x3cf9b7a3	0.030483073
70	0x3e4cd7e6	0.20004234
71	0x3e8ba80e	0.27276653
72	0x3e093491	0.13398959
73	0xbd861717	-0.06547373
74	0x3eb54ed7	0.35411713
75	0xbe6af4d3	-0.22944956
76	0x3d53bc6f	0.051693376
77	0x3b0c33fd	0.0021393292
78	0xbdcabf22	-0.09899737
79	0x3e6267a3	0.22109847
80	0xbf18a509	-0.59626824
81	0xbe3c4c88	-0.1838857
82	0xbe0768e6	-0.1322361
83	0xbe3a11cf	-0.18170856
84	0xbd25de54	-0.04049523
85	0xbe0db0a5	-0.13836916
86	0xbd62bc15	-0.05535515
87	0x3f04e596	0.5191282
88	0xbdd85586	-0.10563187
89	0xbbfba8bf	-0.007680028
90	0x3c807786	0.015681993
91	0x3db3f027	0.0878604
92	0xbe2ba69b	-0.16762774
93	0x3d83cc09	0.06435401
94	0xbe1f1b7d	-0.1553783
95	0xbde5e0ba	-0.11224504
96	0x3ed6178d	0.41814843
97	0xbe842617	-0.2581031
98	0x3e8721ed	0.2639307
99	0xbed3cf25	-0.41368976
100	0x3dbe993f	0.09306573
101	0xbebaea8c	-0.3650707
102	0xbd41c25c	-0.047304496
103	0xbe0f124f	-0.13971828
104	0x3e2e8d8e	0.17046186
105	0xbee0d368	-0.4391129
106	0xbf2d56f7	-0.6771082
107	0x3dfaec37	0.12252086
108	0xbdfe7aec	-0.12425789
109	0x3c8f174a	0.01746716
110	0x3d608399	0.054813
111	0xbf111283	-0.5666887
112	0x3bb9d66d	0.0056713135
113	0xbda8df99	-0.08245773
114	0xbe5b927e	-0.21442601
115	0xbdba2ad1	-0.09090198
116	0xbedf15bc	-0.4357127
117	0xbe79514d	-0.2434742
118	0x3e9ca4b5	0.30594411
119	0xbe6e2ef2	-0.23260096
120	0x3ce466c6	0.027881037
121	0xbe7e489f	-0.2483239
122	0x3dcb8bbc	0.099387616
123	0x3e6df16f	0.23236631
124	0x3e939593	0.28825054
125	0xbeabe7f6	-0.3357541
126	0x3dec144f	0.11527311
127	0xbe49339e	-0.19648597
128	0x3d41da52	0.047327347
129	0xbe3c8fc5	-0.18414219
130	0xbd9cf872	-0.07664575
131	0xbf4a7428	-0.7908349
132	0x3e8d9077	0.2764928
133	0xbbc64d18	-0.0060516708
134	0xbea2191f	-0.3165979
135	0xbd8e0da4	-0.069361955
136	0xbe85a36c	-0.26101243
137	0xbe0580ce	-0.13037416
138	0xbf6e397c	-0.93056464
139	0xbf1ed4dd	-0.62043554
140	0x3e6507ec	0.22366303
141	0x3a1c86ce	0.0005971015
142	0x3eb84dff	0.35997006
143	0x3c92241f	0.01783949
144	0x3d9d2703	0.076734565
145	0x3ed91da4	0.42405427
146	0x3e4218ac	0.18954724
147	0xbe460c2b	-0.19340579
148	0x3f0f3098	0.55933523
149	0xbd312eca	-0.043257512
150	0x3eba7161	0.36414626
151	0x3e59a69e	0.21254966
152	0x3f41f10d	0.7575844
153	0x3e32932e	0.17438957
154	0xbe856edc	-0.26061141
155	0x3eef7f64	0.4677688
156	0xbf6a8264	-0.9160521
157	0xbe94f3df	-0.2909231
158	0x3e380ed0	0.179744
159	0xbda23d5b	-0.07921859
160	0x3ed24462	0.41067797
161	0xbe154038	-0.14575279
162	0xbe55c4d5	-0.20875867
163	0x3e10b774	0.14132482
164	0x3e4045e7	0.18776666
165	0x3f0ae64b	0.5425765
166	0x3e344327	0.17603742
167	0xbefbdfbb	-0.4919413
168	0xbe062981	-0.1310177
169	0x3e80636e	0.2507586
170	0xbe703edc	-0.23461479
171	0x3e93b56d	0.28849354
172	0x3c6b7c03	0.014372828
173	0x3eb8848a	0.3603862
174	0xbca0ec96	-0.019644063
175	0x3d7d3c92	0.061825342
176	0xbf401437	-0.75030845
177	0x3daf6277	0.085637026
178	0xbe723ae5	-0.23655279
179	0x3c29a853	0.010355073
180	0xbc87f889	-0.016598003
181	0x3e8f2141	0.27955058
182	0x3e6a486b	0.22879188
183	0x3e024449	0.12721361
184	0x3e87c29c	0.26515663
185	0xbe0ca304	-0.1373406
186	0x3e2d9587	0.16951571
187	0xbe66cb2a	-0.22538438
188	0x3ea59a18	0.32344127
189	0xbee3f6ca	-0.44524223
190	0xbe689d42	-0.22716239
191	0x3c939130	0.018013567
192	0x3bda65c9	0.006664966
193	0x3e17e1be	0.14832208
194	0xbdfd905b	-0.12381049
195	0x3d72787c	0.059196934
196	0x3cffe54a	0.031237263
197	0xbedf6586	-0.43632144
198	0x3e6660e4	0.22497898
199	0x3f02c14c	0.510762
200	0xbeb58ec3	-0.3546048
201	0x3eb904e7	0.36136553
202	0xbf5b0f87	-0.8557057
203	0x3ea639ff	0.32466123
204	0xbebb0973	-0.36530647
205	0x3e1fde99	0.15612258
206	0xbe43747a	-0.19087401
207	0xbe912790	-0.28350496
208	0x3ed1176a	0.40838176
209	0xbec9bccb	-0.3940185
210	0x3b3eb684	0.0029100487
211	0xbece7bbc	-0.40328777
212	0xbec13317	-0.3773429
213	0xbd16068d	-0.03662734
214	0x3ee7e175	0.45289198
215	0x3e88a47d	0.26687995
216	0x3ede61a6	0.43433875
217	0xbe34d266	-0.17658386
218	0xbe673d24	-0.22581917
219	0x3e5ca094	0.2154563
220	0x3e4c18eb	0.1993138
221	0x3d259ca8	0.040432602
222	0x3eafc96d	0.34333363
223	0xbe343b8f	-0.17600845
224	0x3e34b93f	0.17648791
225	0xbd2703e5	-0.0407752
226	0x3e2278dc	0.15866417
227	0xbdd27f9d	-0.102782466
228	0x3da4359b	0.08018037
229	0x3ea0ce60	0.31407452
230	0x3dae7620	0.08518624
231	0xbe9ce1f6	-0.30641145
232	0x3dd7aad7	0.10530632
233	0x3dfee2eb	0.12445625
234	0xbdd7adc3	-0.10531189
235	0x3e925447	0.28579924
236	0x3e3d21a3	0.18469863
237	0x3d99c91c	0.07509062
238	0x3cd3793c	0.025814645
239	0x3bf56bb2	0.007489645
240	0x3dd366a9	0.10322315
241	0xbe4ab3ef	-0.19795202
242	0x3d081fc7	0.03323343
243	0xbda401d9	-0.08008165
244	0x3e062d65	0.13103254
245	0xbe289a00	-0.16464996
246	0xbe2ae8a9	-0.16690315
247	0x3d22144a	0.03957013
248	0xbd34ea26	-0.044168614
249	0x3d15ac72	0.03654141
250	0xbe0cd365	-0.13752516
251	0x3d7dd958	0.061974853
252	0x3e01ce60	0.12676382
253	0x3dca740f	0.09885418
254	0xbbf89c86	-0.0075870184
255	0x3e4a8f86	0.19781312

model.time_nn.rnn.weight_ih_l0 f4 [96, 32]
0	0x3c71c919	0.014757418
1	0xbe7bd2a2	-0.24592069
2	0xbddc1852	-0.10746826
3	0x3d512366	0.05105915
4	0xbe8d42b0	-0.2758994
5	0x3e02b7b9	0.12765397
6	0x3e34f133	0.17670135
7	0x3f1261bf	0.571804
8	0xbed9cfcc	-0.4254135
9	0xbed1ef6b	-0.41002974
10	0x3eab67a6	0.33477515
11	0xbeede74d	-0.4646553
12	0x3e60f070	0.2196672
13	0xbe3c5b99	-0.18394317
14	0x3ec05df3	0.37571678
15	0x3ef08e8e	0.4698376
16	0x3e356383	0.17713742
17	0x3c53b2c7	0.012921042
18	0xbc0c07ec	-0.008546811
19	0x3e12c92c	0.14334553
20	0x3e9abe98	0.30223536
21	0x3e72d9d3	0.23715906
22	0x3eee15b8	0.46500945
23	0x3ee663c0	0.44997978
24	0x3d7d5480	0.061848164
25	0xbd6de628	-0.058080822
26	0xbde0eb08	-0.10982329
27	0x3e7e1dc0	0.24816036
28	0xbf128d92	-0.5724727
29	0x3ebc0e1b	0.36729512
30	0xbd9879fa	-0.0744514
31	0xbd406dc2	-0.046979673
32	0xbea479fd	-0.3212432
33	0xbe57b20b	-0.21064012
34	0x3d9bea80	0.07613087
35	0xbe865629	-0.2623761
36	0xbe322133	-0.17395477
37	0xbdf84a1c	-0.1212351
38	0xbe13562b	-0.14388339
39	0x3da6a8dc	0.08137676
40	0xbd9f21ad	-0.07770095
41	0xbd710203	-0.05883981
42	0xbe29c1ad	-0.16577788
43	0xbe96ec21	-0.29477027
44	0x3e38af44	0.18035609
45	0xbeab5e43	-0.33470353
46	0x3dd4f236	0.103977606
47	0x3cb9290d	0.022602582
48	0xbe8c0d35	-0.27353826
49	0x3da197ed	0.07890306
50	0xbe588f09	-0.21148314
51	0xbe2cfc91	-0.16893221
52	0x3e9f78a5	0.31146732
53	0xbc7f8781	-0.0155962715
54	0x3ddec197	0.10876768
55	0x3b9a5874	0.0047102515
56	0xbe804e17	-0.25059578
57	0xbdea9c5c	-0.114556044
58	0xbe801c74	-0.25021708
59	0xbde47f6c	-0.11157116
60	0xbebf9207	-0.37416098
61	0x3eca053d	0.39457121
62	0xbea0a497	-0.31375572
63	0x3eb124d2	0.34598404
64	0xbe850563	-0.25980672
65	0x3c97ee9e	0.018546399
66	0x3d1321f1	0.03592104
67	0x3e1e62cd	0.15467377
68	0xbeaa8523	-0.333047
69	0xbeb895e4	-0.36051857
70	0x3ea1f08d	0.31628838
71	0x3d6dd9de	0.058069102
72	0x3bcfdf0f	0.0063437293
73	0xbe8264b9	-0.2546747
74	0x3e5fb0ed	0.21844836
75	0xbe28464c	-0.16433066
76	0x3e75e619	0.24013557
77	0xbe2ece20	-0.17070818
78	0x3d98c0d5	0.07458655
79	0xbdf6159c	-0.120158404
80	0xbe9fe372	-0.31228215
81	0xbf0b7350	-0.5447283
82	0x3e405b73	0.18784885
83	0xbdda14d4	-0.10648504
84	0x3e3822ed	0.17982073
85	0xbdfcd2ce	-0.12344895
86	0xbde2c8ee	-0.110734805
87	0x3ecf7144	0.40516102
88	0xbee227c1	-0.44170955
89	0x3e3315a8	0.1748873
90	0x3dcffc1b	0.10155507
91	0x3e272c6b	0.16325538
92	0xbec4b1e8	-0.38416982
93	0x3ea3c6a0	0.31987476
94	0xbf022e58	-0.50851965
95	0xbd4eff7f	-0.05053663
96	0x3ee4cb3f	0.44686314
97	0x3f4030ce	0.7507447
98	0xbd4c0a42	-0.04981447
99	0x3e8cf635	0.2753159
100	0xbd2a1387	-0.04152253
101	0xbccf7a33	-0.025326824
102	0x3d2b151f	0.04176819
103	0x3cc4b491	0.024011882
104	0x3e358466	0.17726287
105	0x3d881fe3	0.06646707
106	0x3c764696	0.015031477
107	0xbe0c212d	-0.1368453
108	0xbe7d53bf	-0.24738978
109	0x3e45786a	0.19284216
110	0xbe23bd48	-0.15990174
111	0x3e31cda9	0.1736361
112	0xbf2d9639	-0.67807347
113	0x3d9cdd15	0.076593556
114	0x3e69215d	0.22766633
115	0xbd2e135d	-0.042498935
116	0xbe151921	-0.14560367
117	0x3e096b8e	0.13419935
118	0xbdf9a4e1	-0.12189651
119	0xbeabb4ca	-0.3353637
120	0x3e784281	0.24244119
121	0xbd82e359	-0.063910194
122	0x3e6512a8	0.22370398
123	0x3dc025dc	0.09382221
124	0x3e25fb5e	0.1620917
125	0xbefaed72	-0.4900928
126	0xbe82b9be	-0.25532335
127	0xbe777fc8	-0.24169838
128	0x3e8f42e1	0.27980712
129	0xbe4c2fdd	-0.19940133
130	0x3e2eaab2	0.17057303
131	0xbf084239	-0.5322605
132	0xbdc664b5	-0.09687177
133	0x3d8ba11a	0.06817837
134	0xbe078786	-0.13235292
135	0xbd769db0	-0.060208976
136	0xbe22fcee	-0.15916798
137	0xbc8368ca	-0.016041178
138	0x3da80ad8	0.08205193
139	0xbd16cced	-0.036816526
140	0x3eeedc4a	0.46652442
141	0x3e256b92	0.16154316
142	0xbe634a09	-0.22196211
143	0x3d6b6a21	0.05747426
144	0xbe9deec9	-0.3084624
145	0xbe3ac494	-0.18239051
146	0xbd886ac5	-0.0666099
147	0xbd9df64c	-0.07712993
148	0x3e12a5f9	0.14321126
149	0xbd540ef8	-0.051772088
150	0x3e3b3b82	0.18284419
151	0x3e25ffd5	0.16210873
152	0xbea9f094	-0.3319136
153	0x3e38861a	0.18019906
154	0xbd44cb93	-0.048045706
155	0x3d35c230	0.044374645
156	0xbe4c5cb9	-0.19957246
157	0x3e998dee	0.29991096
158	0x3dded84a	0.108810976
159	0x3e9c23b5	0.30495992
160	0xbefde511	-0.49588826
161	0xbe498c42	-0.1968241
162	0x3e866ab9	0.26253298
163	0xbe80b637	-0.2513902
164	0x3dfac2c5	0.122441806
165	0xbdb5cccb	-0.08876952
166	0x3da13a5c	0.07872459
167	0xbc667783	-0.01406658
168	0x3d8ca147	0.06866699
169	0x3cdd2083	0.026993042
170	0x3eac3df5	0.3364102
171	0xbdc8e988	-0.098101676
172	0x3f21a8bf	0.6314811
173	0xbf0b61a3	-0.54445857
174	0x3cea7467	0.028619958
175	0x3e145783	0.14486508
176	0xbed59336	-0.41713876
177	0xbdd96b6e	-0.10616194
178	0x3d611010	0.05494696
179	0x3d83909d	0.06424067
180	0x3c84d4ac	0.016214691
181	0x3e33495f	0.17508458
182	0x3ce5f3f3	0.028070426
183	0x3e133c3f	0.14378451
184	0xbe36b85b	-0.17843764
185	0xbcdc22f8	-0.026872143
186	0xbe12915c	-0.14313263
187	0xbdabb87d	-0.08384798
188	0x3b307f66	0.0026931404
189	0x3eb5dea0	0.35521412
190	0xbdf44b8d	-0.11928473
191	0x3f1b945c	0.60773253
192	0x3dc04a8c	0.09389219
193	0xbdc26323	-0.09491565
194	0x3cf9901a	0.03046422
195	0xbdfc4e84	-0.12319663
196	0x3e393913	0.18088178
197	0x3d2ec4c0	0.042668104
198	0x3d14b86f	0.036308702
199	0xbe0afa93	-0.13572149
200	0x3d537fa8	0.051635414
201	0xbdc9ac77	-0.09847348
202	0x3e462ea2	0.19353727
203	0x3cfb6637	0.030688388
204	0x3e92756e	0.28605217
205	0xbd20d8ce	-0.03926926
206	0xbdb73342	-0.089453235
207	0x3ce7cdba	0.02829634
208	0x3dbf350f	0.09336292
209	0x3d3a0f80	0.04542494
210	0xbd43661b	-0.047704797
211	0xbe1decc5	-0.15422352
212	0x3dd5c0fa	0.10437198
213	0xbc8f437e	-0.017488237
214	0xbd5a1ac4	-0.053248182
215	0xbdac0ce1	-0.08400894
216	0xbdbc4e30	-0.091946006
217	0x3e3ba9f9	0.18326558
218	0x3dfa8148	0.1223169
219	0xbda95403	-0.08267977
220	0x3dcbec3e	0.09957169
221	0x3d80876b	0.06275829
222	0xbdd8b629	-0.10581619
223	0x3e9ad4e7	0.30240557
224	0x3e91d935	0.28486028
225	0x3d855bfd	0.06511686
226	0xbdc69f16	-0.09698312
227	0x3e317794	0.17330772
228	0x3de0bd1e	0.10973571
229	0x3e128d75	0.14311774
230	0xbd2ce628	-0.04221168
231	0xbe8a2e5e	-0.269885
232	0x3d7ae1b7	0.061250415
233	0x3e132f48	0.14373505
234	0x3b5426bd	0.0032371723
235	0x3d53a207	0.051668193
236	0xbf0ca891	-0.5494471
237	0x3eaf37d5	0.34222284
238	0xbe583312	-0.21113232
239	0xbe3a8794	-0.18215781
240	0xbe335618	-0.17513311
241	0x3de499a6	0.111621186
242	0x3c7fd12a	0.015613833
243	0x3c06e85f	0.0082341125
244	0xbe303148	-0.172063
245	0xbdc096f0	-0.09403789
246	0x3d5f580e	0.054527335
247	0x3e3a1b78	0.18174541
248	0x3cdf775e	0.027278598
249	0x3db6e4bb	0.089303456
250	0x3e7f545c	0.24934524
251	0xbde3c58b	-0.11121663
252	0x3e61da8d	0.22056027
253	0x3e290d34	0.16508943
254	0x3d67f481	0.05662966
255	0xbec3f163	-0.382701

model.time_nn.rnn.weight_hh_l0 f4 [96, 32]
0	0x3eb08247	0.34474394
1	0x3db96db8	0.0905413
2	0xbe9fc01e	-0.3120126
3	0xbe3bf187	-0.18353854
4	0x3b72301f	0.0036954952
5	0xbe98614e	-0.29761738
6	0x3e116a63	0.1420074
7	0xbe8aaf09	-0.27086666
8	0xbf655084	-0.8957598
9	0xbf88ecd9	-1.069728
10	0xbebc7874	-0.36810648
11	0x3eb00604	0.3437959
12	0xbd8a882f	-0.06764256
13	0x3ece4976	0.4029042
14	0xbf13575e	-0.57555187
15	0xbecb138a	-0.39663345
16	0xbdd94cf3	-0.1061038
17	0x3e8b3bcc	0.2719406
18	0x3f08db97	0.5346007
19	0xbe7f4f2d	-0.24932547
20	0xbe3d4d15	-0.18486436
21	0xbf100e08	-0.5627141
22	0xbc8fa302	-0.017533783
23	0xbd8da85b	-0.06916877
24	0x3ceab342	0.02864993
25	0x3e34792d	0.1762435
26	0xbe5579ff	-0.20847319
27	0xbd2db967	-0.04241314
28	0xbeec647a	-0.46170408
29	0x3e77befa	0.24193946
30	0x3e8dd798	0.27703547
31	0xbe165a01	-0.14682771
32	0xbd58054b	-0.052739423
33	0xbc809350	-0.015695244
34	0x3d42033b	0.047366362
35	0xbe7c104d	-0.24615593
36	0x3e00e952	0.12589005
37	0xbe45d140	-0.19318104
38	0xbe183e01	-0.14867403
39	0x3ddafe03	0.1069298
40	0x3e219448	0.15779221
41	0xbe27064c	-0.16310996
42	0xbc0ff1ac	-0.008785646
43	0x3eabeaac	0.33577478
44	0x3e3a0717	0.18166767
45	0xbd09a7f5	-0.033607442
46	0x3dc1ebdb	0.09468814
47	0xbe201dd8	-0.15636384
48	0x3ceda7e1	0.029010715
49	0x3dd7517e	0.1051359
50	0xbd0be38d	-0.034152556
51	0x3d4e4fdd	0.050369132
52	0x3e9988ca	0.29987174
53	0xbe1ca290	-0.15296388
54	0xbd98265a	-0.0742919
55	0x3e345290	0.1760962
56	0xbc62f0d0	-0.0138513595
57	0x3d0fdfa0	0.035125375
58	0x3e18c45a	0.14918652
59	0x3eb506b7	0.35356686
60	0xbdf5830f	-0.11987888
61	0xbd379541	-0.044820074
62	0x3d8867df	0.06660437
63	0xbcf95837	-0.030437572
64	0xbc8b597e	-0.017010447
65	0xbe9fc697	-0.312062
66	0x3e5f18a4	0.21786743
67	0xbe0b5d92	-0.13609913
68	0xbee81262	-0.45326525
69	0xbef18f44	-0.47179615
70	0xbcecf836	-0.02892695
71	0xbd536eec	-0.051619455
72	0xbf45ae10	-0.77218723
73	0xbf2e19da	-0.68008196
74	0x3e964746	0.29351252
75	0x3eb7b193	0.35877666
76	0xbeeee3a4	-0.4665805
77	0x3eaaf767	0.33391878
78	0xbe0bd7b2	-0.136565
79	0x3e956475	0.29178205
80	0x3d073779	0.033011887
81	0xbe449b8d	-0.19199963
82	0xbcc6499e	-0.024205025
83	0xbb1327ab	-0.0022454064
84	0xbe578714	-0.21047622
85	0xbf739711	-0.95152384
86	0xbdbfc388	-0.093634665
87	0x3e0b1097	0.13580547
88	0xbe88fe73	-0.2675663
89	0x3e2dc6f6	0.16970429
90	0xbeb8a1b2	-0.36060864
91	0xbe82a0b8	-0.25513244
92	0xbf6db3bd	-0.92852384
93	0xbe71fee0	-0.23632383
94	0xbd371da2	-0.044705994
95	0x3cd65ed7	0.02616827
96	0xbd864fd0	-0.06558192
97	0xbd063541	-0.03276563
98	0x3dfaf417	0.12253588
99	0xbea488a1	-0.3213549
100	0x3da91f5b	0.08257934
101	0x3e105d47	0.14098082
102	0x3d9f97b9	0.07792611
103	0xbe277a6e	-0.16355297
104	0x3f07f302	0.53105175
105	0xbe284273	-0.16431598
106	0xbe1c51f3	-0.15265636
107	0xbdff8ef0	-0.12478435
108	0xbdb8561c	-0.09000799
109	0xbe0856b8	-0.1331433
110	0xbde06d1b	-0.1095831
111	0xbe7178a2	-0.23581174
112	0x3e3e6fb9	0.18597306
113	0x3e90e45d	0.28299227
114	0xbebf61d9	-0.3737934
115	0x3c04365d	0.008069602
116	0x3ed2e53f	0.41190526
117	0xbd54017d	-0.05175923
118	0x3dff80b2	0.124757186
119	0x3e4a4bc9	0.19755472
120	0x3e9acbd6	0.3023364
121	0x3dc609ea	0.0966986
122	0x3ccd4f63	0.025062269
123	0xbe38f370	-0.18061614
124	0xbdaa2803	-0.08308413
125	0x3c9c8859	0.019107984
126	0xbe8f7c8d	-0.28024712
127	0xbef12d1b	-0.47104725
128	0xbddb29ea	-0.10701354
129	0xbd8c576e	-0.068526134
130	0x3e16ac3a	0.14714137
131	0xbd99b3db	-0.07505008
132	0xbe9b4d94	-0.30332625
133	0x3d989150	0.07449591
134	0xbbb51d01	-0.005527139
135	0x3d8006ee	0.06251322
136	0x3df84921	0.12123323
137	0xbe01de37	-0.12682424
138	0x3dcf7f26	0.101316735
139	0xbe9dd3a0	-0.3082552
140	0x3c891e25	0.016738007
141	0x3e511bbf	0.2042074
142	0x3dee272b	0.116285644
143	0x3e1f6d46	0.15569028
144	0xbdfae71f	-0.12251114
145	0x3d49e895	0.049294073
146	0xbc7f36c5	-0.015577023
147	0x3ddaf0f0	0.106904864
148	0xbb433983	-0.0029788918
149	0xbd2158ba	-0.039391257
150	0xbbd0b983	-0.006369771
151	0xbeadd631	-0.33952478
152	0xbec6afb0	-0.38805914
153	0x3dbfd529	0.09366829
154	0xbeb13762	-0.34612566
155	0x3e7e9979	0.24863233
156	0xbe6490ba	-0.22320834
157	0x3cc95baa	0.024579842
158	0x3e434358	0.19068658
159	0xbda711da	-0.08157702
160	0xbd2c1cd7	-0.04201969
161	0xbd2d6ca4	-0.042339936
162	0xbda1c542	-0.07898952
163	0xbc2259a4	-0.009909067
164	0xbd17ddaf	-0.03707665
165	0x3c4d279e	0.0125216525
166	0xbd33a5bf	-0.04385924
167	0x3c0bea14	0.008539695
168	0x3cf51e49	0.029921668
169	0x3e07fb0f	0.13279365
170	0x3e1327e0	0.1437068
171	0x3ddf78ce	0.109117135
172	0xbe0ec7c9	-0.139434
173	0xbdcedc9c	-0.10100672
174	0xbce40243	-0.02783311
175	0xbe4ddde1	-0.20104171
176	0xbdeb18e2	-0.114793554
177	0x3e3105c0	0.1728735
178	0xbe51a70e	-0.20473883
179	0x3d178d36	0.036999904
180	0xbd02c79d	-0.031928647
181	0xbe6af20d	-0.22943898
182	0x3d2fbb87	0.04290345
183	0xbcc39dc3	-0.023878938
184	0x3cc33a75	0.023831585
185	0x3e85fdc1	0.2617016
186	0xbcda2795	-0.026630202
187	0x3ddc51db	0.107578
188	0xbda1cafa	-0.07900043
189	0x3de40574	0.111338526
190	0x3d3d3fa9	0.04620329
191	0xbeb94a10	-0.36189318
192	0x3dcc2276	0.099675104
193	0x3d918f96	0.07107465
194	0x3e5a388f	0.21310638
195	0x3d907a64	0.07054594
196	0xbe8de2eb	-0.27712187
197	0x3d940d04	0.07229045
198	0xbe4529be	-0.19254205
199	0x3e8d1828	0.27557492
200	0x3e14ff0c	0.14550418
201	0xbb5109d6	-0.0031896732
202	0xba678a38	-0.0008832547
203	0x3dc728dd	0.09724591
204	0xbc789b97	-0.015173814
205	0x3d270511	0.040776316
206	0xbda47ae3	-0.08031251
207	0x3e9efa2f	0.3105025
208	0xbcfc13cc	-0.030771159
209	0xbea575c7	-0.3231642
210	0xbe50a9a9	-0.2037722
211	0x3e29798d	0.16550274
212	0xbdd23eb7	-0.10265868
213	0x3e10fe42	0.14159492
214	0xbddc860a	-0.107677534
215	0xbcfbe6e2	-0.030749742
216	0xbe4c8922	-0.19974187
217	0xbe48472c	-0.195584
218	0x3c66125a	0.014042461
219	0x3d2ab650	0.041677773
220	0xbd6cef29	-0.05784527
221	0x3d9d8f5d	0.0769336
222	0x3d1a485c	0.037666664
223	0xbd249058	-0.04017672
224	0xbe3606e4	-0.17776066
225	0x3e400a55	0.18753941
226	0x3da646cb	0.081189714
227	0x3cf719ea	0.030163724
228	0xbf1659b6	-0.5873064
229	0x3c1d02cd	0.009583187
230	0xbeaaaf26	-0.33336753
231	0x3f0acf1e	0.54222286
232	0x3d392ff6	0.045211755
233	0x3e5fe4c0	0.21864605
234	0xbc5dc7cb	-0.013536404
235	0xbdb39a11	-0.0876962
236	0xbd6cea8d	-0.057840873
237	0x3d31ec53	0.043438267
238	0x3dc6f200	0.097141266
239	0x3ee092b2	0.4386192
240	0xbcd5e051	-0.026107939
241	0xbee083b7	-0.4385049
242	0xbd413ab6	-0.04717513
243	0x3d09e127	0.033661988
244	0x3c91459d	0.01773339
245	0x3e0df8ab	0.1386439
246	0x3dc156a3	0.09440353
247	0xbe0cd39a	-0.13752595
248	0xbec35e4c	-0.3815788
249	0xbe43b3e0	-0.19111586
250	0xbdf8b287	-0.121434264
251	0x3e805d8f	0.2507138
252	0xbe810e5e	-0.25206274
253	0xbd4777e1	-0.04869831
254	0xbe2adea7	-0.16686498
255	0x3f020a4b	0.50796956

model.time_nn.rnn.bias_ih_l0 f4 [96]
0	0xbdf247d7	-0.118301086
1	0x3e28e0c1	0.16491987
2	0x3e57ec9d	0.21086355
3	0xbcc2136d	-0.023690904
4	0x3db79e14	0.08965698
5	0xbd785170	-0.06062454
6	0xbd3f345d	-0.046680797
7	0x3da69510	0.081339
8	0xbe291f58	-0.16515863
9	0xbe72d0cd	-0.23712464
10	0x3c1cdd8a	0.009574303
11	0xbe91add3	-0.2845293
12	0x3d85ccea	0.06533225
13	0x3e5befec	0.21478242
14	0x3d06ce66	0.03291168
15	0xbbbcb08c	-0.0057583507
16	0x3d6a01e6	0.057130717
17	0x3a230580	0.0006218776
18	0x3dd8fe49	0.10595376
19	0xbd438b5f	-0.047740337
20	0x3d94e9ff	0.07271194
21	0xbe189de9	-0.14903988
22	0xbe9f76ce	-0.31145328
23	0x3da10e39	0.07864041
24	0x3de7df3e	0.11321877
25	0x3e0f2f01	0.13982774
26	0xbd9f1b22	-0.07768847
27	0x3e0a0ca3	0.13481383
28	0x3d0d98e7	0.034569647
29	0x3e369075	0.17828543
30	0x3d9d7271	0.076878436
31	0x3dcc41d8	0.09973496
32	0x3e154632	0.14577559
33	0x3c6c0db5	0.014407565
34	0x3e5a2abb	0.21305363
35	0x3e0f0e32	0.13970259
36	0xbd0dd5bd	-0.034627665
37	0x3e60ab2e	0.219403
38	0xbde8d133	-0.113680266
39	0xbd90564b	-0.07047709
40	0x3e25bb11	0.16184641
41	0x3eac4c67	0.3365204
42	0x3dd5921d	0.104282595
43	0xbc8c92cf	-0.017159848
44	0xbcffe3e3	-0.031236595
45	0xbefb7547	-0.49112913
46	0x3da03d8d	0.0782424
47	0xbddd66fb	-0.108106576
48	0xbe4a76cc	-0.1977188
49	0x3c879e66	0.016555022
50	0x3dc37341	0.09543467
51	0xbe0ef2b4	-0.13959771
52	0xbd8549cd	-0.06508217
53	0xbd69cf2b	-0.057082336
54	0xbe2397c5	-0.15975864
55	0x3d3fa4b1	0.04678792
56	0x3e8cd1bd	0.27503768
57	0x3c0ed584	0.008717898
58	0xbbb4fd2f	-0.005523346
59	0x3b663e47	0.0035132335
60	0xbdcb4b91	-0.099265225
61	0x3d80de57	0.06292408
62	0x3dca7367	0.098852925
63	0x3ce7302e	0.028221216
64	0x3e1564ce	0.14589235
65	0x3e08bab8	0.13352478
66	0x3d998334	0.07495728
67	0x3d1a2b08	0.037638694
68	0xbd5a6038	-0.053314418
69	0xbcea57dc	-0.028606348
70	0x3cc0532b	0.023477158
71	0x3e121d9d	0.14269109
72	0xbe30a9c0	-0.17252254
73	0xbdf1df75	-0.11810199
74	0x3d777f27	0.060423996
75	0x3e4eee24	0.20208031
76	0xbc253203	-0.0100827245
77	0xbe83d1da	-0.25746042
78	0x3c9deee5	0.019278953
79	0x3df6ddb8	0.12054008
80	0xbe2c58e9	-0.16830792
81	0xbdeeea6b	-0.116658054
82	0x3e0fee5a	0.14055768
83	0xbd10088e	-0.03516441
84	0xbe0692fe	-0.1314201
85	0xbd055c09	-0.032558475
86	0x3cc2ed45	0.02379478
87	0xbc9d5239	-0.019204246
88	0xbd168cfb	-0.036755543
89	0xbe1ffad7	-0.15623032
90	0x3e05d5ef	0.1306989
91	0x3cb547c6	0.02212895
92	0x3dc57918	0.096422374
93	0xbd9342b8	-0.0719046
94	0xbd4ed288	-0.050493747
95	0xbdeb246c	-0.11481556

model.time_nn.rnn.bias_hh_l0 f4 [96]
0	0xbe2096a4	-0.15682465
1	0x3d80f796	0.06297223
2	0xbbf45f8a	-0.007457678
3	0xbe497a1a	-0.19675484
4	0xbd98a18a	-0.07452686
5	0x3e31a7d2	0.17349175
6	0xbdfde5ed	-0.123973705
7	0x3e419b66	0.18906936
8	0x3e104dac	0.1409213
9	0xbe910416	-0.2832343
10	0xbde9d172	-0.11416902
11	0xbe4a0950	-0.19730115
12	0x3db5a830	0.0886997
13	0x3dfdb573	0.12388124
14	0x3e48658f	0.19569992
15	0xbdc80331	-0.09766234
16	0x3e4d0d43	0.2002459
17	0x3d89b5fa	0.067241624
18	0x3e37c886	0.17947587
19	0xbdffff5d	-0.124998786
20	0x3e2b37b4	0.16720468
21	0xbe1aca33	-0.15116195
22	0xbdf5e58b	-0.120066725
23	0x3e843654	0.258227
24	0x3dbe9dea	0.093074635
25	0xbbc4f07f	-0.0060101147
26	0xbe1a76f8	-0.15084445
27	0xbc169d06	-0.009192711
28	0xbd86505a	-0.065582946
29	0x3d110c12	0.0354119
30	0x3dea0635	0.11426965
31	0x3e1ad784	0.15121275
32	0xbd0084b0	-0.03137654
33	0xbe2d6964	-0.16934735
34	0x3e3e4ea1	0.18584682
35	0x3de7c70f	0.11317264
36	0xbd8031d3	-0.06259503
37	0x3e145d6e	0.14488766
38	0x3ce1c93a	0.027561773
39	0xbd75d020	-0.060012937
40	0xbd8d01b5	-0.06885091
41	0x3dee4359	0.11633939
42	0x3ce15059	0.027504133
43	0x3c128e1c	0.008945014
44	0xbd38649d	-0.045017827
45	0xbf07e565	-0.53084403
46	0x3e29aa36	0.16568837
47	0xbe793b60	-0.24339056
48	0x3d9438ce	0.07237397
49	0xbe0bb62a	-0.13643709
50	0xbd021ddd	-0.03176676
51	0x3d9c39e4	0.07628229
52	0xbd81c187	-0.063357405
53	0xbdf53ba5	-0.11974267
54	0xbd77eb11	-0.06052691
55	0xbbff372c	-0.0077885594
56	0x3d9a6944	0.07539609
57	0x3bd98c0b	0.006639009
58	0xbc23a1e3	-0.009987327
59	0x3d76fa23	0.060297143
60	0xbe3ca516	-0.1842235
61	0xbd8e82c1	-0.06958533
62	0x3dd01691	0.10160554
63	0xbdc39e82	-0.09551717
64	0xbe03bd74	-0.1286524
65	0xbe379bfe	-0.179306
66	0x3e1f45bd	0.15553947
67	0xbdd1ace8	-0.102380574
68	0x3e09d329	0.13459457
69	0xbe3f4889	-0.18680014
70	0xbdd4c2f0	-0.10388744
71	0x3dd53aaf	0.10411584
72	0x3e1e1384	0.15437132
73	0xbe08e97a	-0.13370314
74	0xbdd164d8	-0.102243125
75	0xbe94d7d8	-0.29070926
76	0xbde729dd	-0.11287282
77	0xbd0a4711	-0.03375918
78	0x3e569a70	0.2095735
79	0xbe4aa72b	-0.19790332
80	0x3d875f32	0.06609954
81	0x3c6a9915	0.014318724
82	0x3e27442d	0.16334601
83	0x3e8e1ff6	0.2775876
84	0x3e4b32d7	0.19843613
85	0xbe84dc29	-0.2594922
86	0x3de15d46	0.110041186
87	0xbd757bd0	-0.05993253
88	0xbd429ef7	-0.047514882
89	0xbcaba0c3	-0.02095068
90	0x3d768425	0.060184617
91	0x3e131840	0.1436472
92	0x3df28ddc	0.11843464
93	0xbd7b0c31	-0.061290924
94	0x3d90dd20	0.07073426
95	0x3e08a4dc	0.13344139

model.space_nn.filters.weight f4 [32, 160]
0	0x3e209cee	0.15684864
1	0x3d515e44	0.05111529
2	0xbdfb5660	-0.12272334
3	0xbb58a67c	-0.0033058217
4	0xbdb8b4b0	-0.090188384
5	0x3c5d4b00	0.013506651
6	0xbdb492df	-0.08817076
7	0xbc2ff7fb	-0.0107402755
8	0x3c5eef66	0.013606882
9	0x3dd3db8f	0.10344612
10	0xbe065280	-0.13117409
11	0x3e5d5922	0.21616033
12	0x3d2ef090	0.042709887
13	0x3dc0b1a7	0.094088845
14	0xbe134f88	-0.14385808
15	0x3d8e4566	0.069468305
16	0x3dd3c41e	0.10340141
17	0xbdb32139	-0.08746571
18	0xba06dce8	-0.0005144612
19	0xbd8f2c3c	-0.06990859
20	0x3e1cf694	0.15328437
21	0x3d9420fc	0.07232854
22	0xbc08468e	-0.008317603
23	0xbdf5ee88	-0.12008387
24	0x3d91d5e8	0.071208775
25	0xbdc222f9	-0.09479327
26	0xbd60b65a	-0.054861404
27	0x3db4daac	0.08830771
28	0xbdd94a59	-0.10609884
29	0xbd8dc50a	-0.06922348
30	0x3d42e0f8	0.04757783
31	0x3da2cc7b	0.07949158
32	0x3dae05ef	0.084972255
33	0xbd288a3e	-0.041147463
34	0xb84d1c9a	-4.8902446e-05
35	0x3cc2528b	0.023721
36	0x3d8a1fcc	0.06744346
37	0xbc6d558e	-0.01448573
38	0xbca8e638	-0.02061759
39	0xbc82aa24	-0.01595027
40	0x3de04ed4	0.10952535
41	0x3c8f2822	0.017475192
42	0xbd0fe041	-0.035125975
43	0xbc4939cf	-0.012281849
44	0x3c918b8d	0.017766738
45	0x3c4bf72e	0.012449069
46	0xbd3eb37a	-0.04655788
47	0xbd48cf61	-0.049025897
48	0x3dc5f8b4	0.09666577
49	0xbd8a8b3e	-0.067648396
50	0x3c88648f	0.016649513
51	0x3cde4a4b	0.027135035
52	0xbcf7bcb7	-0.030241353
53	0xbd7f5aeb	-0.062342566
54	0x3d1bcdcc	0.03803806
55	0x3c287642	0.010282101
56	0xbddfb923	-0.10923984
57	0xbcb728d9	-0.022358345
58	0x3cc664be	0.02421796
59	0xbd349748	-0.044089586
60	0xbc9a08d7	-0.018803043
61	0xbb82fd74	-0.003997499
62	0x3de33316	0.11093728
63	0x3def4841	0.11683703
64	0xbbd1a60f	-0.0063979696
65	0x3d25591e	0.040368192
66	0x3caef89f	0.021358786
67	0xbd886464	-0.06659773
68	0x3c95911c	0.01825767
69	0xbda13d27	-0.07872992
70	0xbdfca6a2	-0.1233647
71	0xbcbc88d5	-0.023014465
72	0x3d3bd4e9	0.045857344
73	0xbc8b20e5	-0.016983459
74	0x3b9260c8	0.0044671036
75	0xbe04c8d3	-0.12967233
76	0xbc342f81	-0.010997654
77	0x3d460e0b	0.048353236
78	0x3ceb1206	0.028695118
79	0xbdb46d41	-0.08809901
80	0x3de7a0ac	0.113099426
81	0xbd1f8396	-0.03894385
82	0xbc8dbcca	-0.017301936
83	0xbd1d9f5f	-0.038482066
84	0x3c04b7ad	0.008100432
85	0x3d0bb2d8	0.034106106
86	0x3dbb76fb	0.09153553
87	0x3cea9f52	0.028640423
88	0xbd0d57b5	-0.034507472
89	0x3d566acf	0.052347954
90	0x3c302e6e	0.010753257
91	0xbe037fa6	-0.12841663
92	0x3c4a298d	0.012339008
93	0xbdc02316	-0.09381692
94	0x3d95ea4d	0.0732008
95	0x3dd65940	0.10466242
96	0xbd15b32d	-0.03654783
97	0x3d891e62	0.06695248
98	0xbd1c77ab	-0.03820006
99	0xbc92d80f	-0.01792529
100	0xbd23082f	-0.039802726
101	0xbd601c0d	-0.05471425
102	0x3a702adf	0.0009161662
103	0x3d4b7584	0.04967262
104	0xbd1a015a	-0.037598945
105	0x3d1d24b6	0.03836509
106	0x3d2106c1	0.03931308
107	0xbc793c1f	-0.015212088
108	0xbbfa057a	-0.0076300474
109	0x3d77d02c	0.060501263
110	0xbcd23006	-0.025657665
111	0x3da06de6	0.078334615
112	0xbd193dc8	-0.037412435
113	0xbd471136	-0.048600398
114	0x3cbd8ead	0.023139322
115	0xbcd86870	-0.026416987
116	0x3d270c20	0.040783048
117	0xbd173c4d	-0.03692274
118	0xbb9c5a6d	-0.004771522
119	0xbce795d8	-0.028269693
120	0x3d6c9053	0.057754826
121	0xbd8ea56b	-0.06965145
122	0x3d867680	0.06565571
123	0xbdb4589a	-0.08805962
124	0x3ccb7338	0.024835214
125	0x3c9228d7	0.01784174
126	0x3d055ba6	0.032558106
127	0xbc21eca8	-0.009883083
128	0xbd5ba02e	-0.053619556
129	0x3cfadd05	0.030622968
130	0xbc8d32c6	-0.017236125
131	0xbdcfe865	-0.101517476
132	0x3d12f5e1	0.03587902
133	0x3b1b9751	0.0023741315
134	0xbd7842ed	-0.0606107
135	0x3d7bfc78	0.06152007
136	0x3cbba5b5	0.022906164
137	0xbd8cac8b	-0.068688475
138	0xbd5139a5	-0.051080365
139	0xbdf2f0db	-0.11862346
140	0xbd001b94	-0.0312763
141	0x3c9a9603	0.01887036
142	0x3ae36dac	0.001735141
143	0xbd1d880c	-0.038459823
144	0x3d993c9b	0.07482263
145	0xbe061c85	-0.13096817
146	0xbc1301c2	-0.008972587
147	0x3d35637f	0.04428434
148	0xbb9d4903	-0.0047999634
149	0x3c1b5100	0.009479761
150	0xbc71d2c6	-0.014759725
151	0x3df679e9	0.12034971
152	0xbad7f045	-0.0016474804
153	0xbd389aaf	-0.045069393
154	0x3d302878	0.043007344
155	0xbd977348	-0.07395035
156	0xbdc83952	-0.09776558
157	0x3dded48c	0.10880384
158	0xbbddd2b3	-0.006769502
159	0x3dfc9821	0.12333704
160	0x3ddf41f0	0.109012485
161	0x3dab105b	0.08352729
162	0xbe55ce46	-0.20879468
163	0x3c383ee9	0.011245468
164	0x3dae04df	0.08497023
165	0xbd8a766e	-0.0676087
166	0xbd87d12c	-0.06631693
167	0xbeac393f	-0.33637425
168	0xbcda7337	-0.026666267
169	0x3d760e32	0.06007213
170	0xbdfd4d7c	-0.123682946
171	0x3e934ec6	0.28771037
172	0xbcd0e200	-0.02549839
173	0x3de4044e	0.111336336
174	0xbdd537c0	-0.10411024
175	0x3e05d352	0.13068894
176	0x3e3f65b8	0.18691146
177	0xbcf83bfa	-0.030302037
178	0x3e37be7f	0.17943762
179	0x3ba5b45b	0.0050569004
180	0xbc97a706	-0.01851226
181	0xbdd0a182	-0.10187055
182	0xbd161a94	-0.03664644
183	0x3d4bbc43	0.049740087
184	0x3e718ac5	0.23588093
185	0x3d4e3c19	0.050350282
186	0x3e86f264	0.26356804
187	0xbda2eba8	-0.07955104
188	0xbe96294f	-0.2932839
189	0x3dc0e174	0.09418002
190	0xbe8063b3	-0.25076064
191	0x3e14529d	0.1448464
192	0xbda6ec97	-0.08150595
193	0x3db8e492	0.09027971
194	0xbd984458	-0.074349105
195	0xbd9afb92	-0.075675145
196	0x3d91a089	0.07110698
197	0xbdba9462	-0.09110333
198	0x3d1f7c45	0.038936872
199	0xbced9a07	-0.02900411
200	0x3baa3a45	0.0051949346
201	0xbd86df87	-0.06585603
202	0xbbcbf219	-0.0062239286
203	0x3d11f861	0.035637263
204	0x3d8d8bd1	0.069114335
205	0xbcf88842	-0.03033841
206	0x3d1f42cf	0.038882073
207	0xbcd575ea	-0.026057202
208	0xbd21c474	-0.039493993
209	0x3cc1496d	0.023594582
210	0x3db0b05c	0.08627388
211	0xbce198da	-0.027538706
212	0x3d0ad672	0.033895917
213	0xbd7c1f72	-0.061553426
214	0xbcec1442	-0.028818253
215	0xbd5e5cae	-0.054287605
216	0x3d7d714d	0.06187563
217	0xbd8370ff	-0.06418037
218	0xbc23df83	-0.01000202
219	0x3cd76590	0.026293546
220	0x3d44886a	0.047981657
221	0xbc3952d9	-0.011311256
222	0x3db452c5	0.088048495
223	0x3dba1473	0.09085932
224	0x3d94b4f3	0.07261076
225	0x3c798212	0.015228765
226	0xbad5a4fc	-0.001629978
227	0xbd8704af	-0.0659269
228	0x3d8e29fb	0.06941601
229	0xbd755cf0	-0.059903085
230	0xbd5bfd1b	-0.053708177
231	0xbc71a8a9	-0.014749684
232	0x3c091548	0.00836689
233	0xbd872310	-0.065984845
234	0x3d287763	0.04112948
235	0xbc9cd3e8	-0.019144014
236	0xbc96ad1a	-0.018393088
237	0x3b5e7186	0.0033942177
238	0xbad8ec89	-0.0016549985
239	0x3c3cb014	0.01151659
240	0xbd1e2d96	-0.038617693
241	0xbdb76e96	-0.089566395
242	0xbc169ade	-0.009192197
243	0x3d8b6ec9	0.0680824
244	0xbd1f5940	-0.038903475
245	0x3d843214	0.06454864
246	0xbd0349cd	-0.032052804
247	0x3d0fc1aa	0.0350968
248	0xbd4e21f9	-0.050325368
249	0x3d0195f3	0.031637143
250	0x3d8540d8	0.065065086
251	0xbd9192d0	-0.071080804
252	0x3d5f246c	0.054478094
253	0x3c494d78	0.012286536
254	0xbcdd735f	-0.027032552
255	0x3df17202	0.117893234

model.space_nn.filters.bias f4 [32]
0	0x3b211992	0.0024581891
1	0x3d8649b0	0.065570235
2	0xbcd9dad3	-0.026593601
3	0x3c59f5de	0.013303248
4	0x3d86101e	0.06546043
5	0xbcefddd8	-0.029280588
6	0xbde78d39	-0.11306233
7	0x3d9f921f	0.07791542
8	0xbd60f736	-0.05492326
9	0xbcbe240b	-0.023210546
10	0x3d1e5dc1	0.03866363
11	0x3dcfb963	0.101427816
12	0xbd5186b6	-0.05115386
13	0xbb9decda	-0.0048194947
14	0xbdb4243f	-0.08795976
15	0xbd69893b	-0.05701564
16	0xbcf9c436	-0.030489068
17	0x3c245910	0.010031
18	0xbd8dd512	-0.069254056
19	0x3cca8d84	0.024725683
20	0xbd897c9b	-0.0671322
21	0x3d1e558d	0.038655806
22	0x3d1159e2	0.03548611
23	0xbd2f08cf	-0.04273301
24	0xbc7af552	-0.015317278
25	0x3d2a0ee0	0.041518092
26	0xbb5e0d1c	-0.0033882326
27	0xbdbc1e0d	-0.09185419
28	0x3d25ac10	0.040447295
29	0x3ccdd044	0.025123723
30	0x3d6e31fd	0.05815314
31	0xbcccfddc	-0.025023393

model.decoder.weight f4 [12, 32]
0	0xbe3cfcb0	-0.18455768
1	0x3d481b6e	0.048854284
2	0xbe1d5a42	-0.15366462
3	0x3d1ea2f4	0.038729623
4	0x3bc2b133	0.005941534
5	0x3cfc73f7	0.030817015
6	0x3e135c21	0.14390613
7	0x3dbdc0cc	0.09265289
8	0x3df50583	0.11963942
9	0x3d8873f8	0.06662744
10	0xbd752fd3	-0.05986006
11	0xbe625a74	-0.22104818
12	0x3d3871fb	0.045030575
13	0xba29cd49	-0.0006477428
14	0xbd5d1aaf	-0.053980526
15	0xbcc293ed	-0.023752177
16	0xbd8a2cbd	-0.067468144
17	0xbe1eca79	-0.15506925
18	0xbd014412	-0.031559058
19	0xbdd66145	-0.104677714
20	0x3e0ecb49	0.13944735
21	0x3e83da0c	0.25752294
22	0xbe190396	-0.14942774
23	0xbe2de391	-0.16981341
24	0x3cb85117	0.022499604
25	0xba284f32	-0.00064204924
26	0x3d2a61cd	0.041597176
27	0x3d86fc4e	0.06591092
28	0xbe6e6517	-0.2328075
29	0xbeb50fce	-0.3536362
30	0xbd9a99d3	-0.07548871
31	0xbc028ea0	-0.007968575
32	0x3d84c71c	0.064832896
33	0x3e61c0ff	0.22046278
34	0xbd95a78b	-0.07307347
35	0x3de8095e	0.11329912
36	0xbde3da03	-0.11125567
37	0xbdca6bac	-0.09883818
38	0x3d997dec	0.07494721
39	0xbda33212	-0.079685345
40	0x3c1dd7aa	0.009633938
41	0x3e4faf10	0.20281625
42	0x3dbf42be	0.09338902
43	0xbe1829d3	-0.14859705
44	0xbe1d34db	-0.15352194
45	0x3dc92094	0.09820667
46	0x3d230e44	0.039808527
47	0x3ced572c	0.02897223
48	0x3d192f57	0.037398662
49	0xbbd7d518	-0.006586682
50	0xbcdb9c82	-0.026808027
51	0x3ca828b2	0.020527218
52	0x3e4e40a1	0.20141841
53	0x3e3dd5ae	0.18538544
54	0xbe562234	-0.20911485
55	0x3ddfdccb	0.10930785
56	0x3d8fb159	0.07016248
57	0xbd98579a	-0.07438584
58	0x3db09d15	0.08623711
59	0x3bf12484	0.0073590893
60	0xbc835667	-0.01603241
61	0xbe70ee2b	-0.23528354
62	0xbdd0406c	-0.101685375
63	0xbd0f108f	-0.0349279
64	0x3d866521	0.065622576
65	0x3e4c7274	0.19965535
66	0xbd30fafb	-0.043208104
67	0x3b9c0478	0.004761275
68	0xbe44b25b	-0.19208662
69	0xbc8d79e4	-0.017270036
70	0x3ded4a23	0.11586406
71	0xbdef1398	-0.11673659
72	0xbd39ec86	-0.045391582
73	0x3e48939c	0.19587559
74	0x3d1064f9	0.035252545
75	0xbe1831f9	-0.14862813
76	0xbe14d431	-0.1453407
77	0x3dcd5326	0.10025625
78	0x3e10be9d	0.14135213
79	0x3a3fa237	0.00073102437
80	0x3e23778f	0.15963577
81	0xbe48b1b1	-0.19599034
82	0x3dde9c0d	0.10869608
83	0xbcc596b1	-0.024119707
84	0x3e3c6588	0.18398106
85	0x3c69bec9	0.014266678
86	0xbe348263	-0.17627864
87	0x3dfe9809	0.12431342
88	0xbd7e37a5	-0.062064786
89	0xbdcdab3d	-0.10042427
90	0xbdbe8d77	-0.09304326
91	0xbc71bc3c	-0.014754351
92	0xbcc00902	-0.023441795
93	0xbe2230d1	-0.15838934
94	0xbdebd68d	-0.11515532
95	0xbb9e3db8	-0.004829135
96	0x3c0eb23d	0.0087094875
97	0x3d563760	0.052298903
98	0xbdc11a00	-0.09428787
99	0x3de251fd	0.11050794
100	0x3d0a0222	0.03369344
101	0xbd951304	-0.072790176
102	0xbd0fe93e	-0.035134546
103	0xbe2b9fbc	-0.16760153
104	0x3cd9f7d1	0.026607426
105	0x3e56cc7e	0.20976445
106	0xbdcde9d6	-0.10054366
107	0xbe167565	-0.1469322
108	0xbdcc22d1	-0.09967578
109	0x3c65d86c	0.01402865
110	0xbb8b4b27	-0.004250902
111	0xbdf8e4cb	-0.12153014
112	0x3d7355c5	0.059407968
113	0xbe483eaf	-0.19555162
114	0xbd9306ce	-0.07179032
115	0x3c27e695	0.010247846
116	0x3c091422	0.008366616
117	0xbd81ebd8	-0.06343812
118	0xbe623138	-0.22089088
119	0xbe07fcdb	-0.1328005
120	0x3c76fa09	0.015074261
121	0xbe594057	-0.2121595
122	0x3e23027a	0.15918913
123	0x3ce19807	0.027538313
124	0x3c8242ea	0.015901048
125	0xbddf2dff	-0.10897445
126	0xbe5d3092	-0.2160056
127	0x3d580371	0.052737657
128	0xbd35456a	-0.04425565
129	0x3d6917ac	0.05690734
130	0xbcb9b647	-0.022669924
131	0xbd106ee2	-0.035261996
132	0xbd5011c4	-0.050798193
133	0xbd1737ea	-0.03691856
134	0x3cd4dae3	0.02598328
135	0xbd956aa8	-0.07295734
136	0xbdfde0f8	-0.12396425
137	0x3e5e4ec3	0.21709733
138	0xbdc099df	-0.094043486
139	0xbde06460	-0.10956645
140	0xbde55974	-0.111987025
141	0xbc5fb8b2	-0.013654875
142	0x3c7cb0f5	0.015423049
143	0x3d43f3cb	0.04783992
144	0x3e24f4ed	0.16109057
145	0xbc5c76d3	-0.013456064
146	0xbd41be24	-0.047300473
147	0x3dbba83c	0.091629475
148	0xbaad0221	-0.0013199487
149	0x3d1b1e7d	0.037870873
150	0xbdfcd09a	-0.12344475
151	0xbdfe3e4f	-0.12414228
152	0xbe16ca23	-0.14725547
153	0xbe4b2a4f	-0.19840358
154	0x3dc34a67	0.095356755
155	0x3d33afdf	0.043868896
156	0xbe01a725	-0.12661417
157	0xbe08984a	-0.13339344
158	0xbdd5cfa8	-0.10439998
159	0xbd839379	-0.064246126
160	0xbc37b0fb	-0.011211629
161	0x3dd412e1	0.10355163
162	0xbd9acd6d	-0.07558713
163	0x3e367f7e	0.17822072
164	0xbe133635	-0.14376147
165	0xbe3c04be	-0.18361184
166	0xbd21d0dd	-0.03950583
167	0xbe336f01	-0.17522813
168	0xbdc65b69	-0.09685404
169	0x3e25261c	0.16127819
170	0xbdfb4d78	-0.12270635
171	0x3cda3389	0.026635902
172	0xbc2a383a	-0.010389382
173	0x3d762709	0.06009582
174	0x3e402947	0.18765746
175	0xbe0756fb	-0.13216774
176	0x3dedcab1	0.11610926
177	0xbd9d69e1	-0.076862104
178	0xbb6c6a54	-0.0036074119
179	0x3cde1313	0.027108705
180	0xbde3bac5	-0.11119608
181	0x3df200b1	0.11816538
182	0xbd29d964	-0.041467085
183	0xbda65e55	-0.08123461
184	0x3c7208ea	0.014772633
185	0xbe49826b	-0.19678657
186	0x3e1ee90e	0.15518591
187	0xbd5bd0d6	-0.05366596
188	0xbcae835a	-0.021302868
189	0x3d367e57	0.04455408
190	0xbe616f6a	-0.22015157
191	0x3da0fb15	0.0786039
192	0xbe281952	-0.16415909
193	0x3baf89fb	0.0053570247
194	0xbe26dd96	-0.16295466
195	0x3da68603	0.081310295
196	0xbe147b2f	-0.14500116
197	0x3cb87f09	0.022521513
198	0x3dc46eba	0.09591432
199	0xbdec435e	-0.11536287
200	0xbe1c2a58	-0.15250528
201	0x3e271100	0.16315079
202	0xbd774a7a	-0.06037376
203	0x3d216054	0.039398506
204	0xbc25388d	-0.010084284
205	0x3e1e404f	0.1545422
206	0x3b6454e0	0.0034840629
207	0x3bf4a8de	0.0074664196
208	0x3daea86c	0.08528218
209	0xbd60d1d8	-0.054887623
210	0xbc9eac8b	-0.019369384
211	0x3d18186c	0.037132666
212	0xbdff912d	-0.12478862
213	0xbd7f46d7	-0.062323418
214	0xbddd6a46	-0.10811286
215	0x3a9b99dc	0.0011871415
216	0xbe1bd9ef	-0.15219854
217	0xbe361285	-0.17780502
218	0x3e40d14d	0.18829842
219	0xbd7bf55d	-0.061513294
220	0xbd85d857	-0.06535404
221	0x3d3c41e7	0.045961287
222	0xbe6f0cb6	-0.23344693
223	0xbe084ad0	-0.13309789
224	0xbdc46a08	-0.09590536
225	0xbe25b7eb	-0.1618344
226	0xbdae8b2a	-0.08522637
227	0x3e0d46ef	0.1379659
228	0xbdd77ad7	-0.10521477
229	0xbd4b5c40	-0.049648523
230	0x3e20f3c6	0.15717992
231	0xbe2db74a	-0.1696445
232	0xbe5102dd	-0.20411249
233	0x3da69e16	0.08135621
234	0x3acfd1ac	0.0015855334
235	0xbdf12d23	-0.11776187
236	0x3c8675f2	0.016413663
237	0x3ca7643f	0.020433543
238	0x3e46dce9	0.19420208
239	0x3c4843af	0.012223168
240	0x3e17e6ef	0.14834188
241	0xbdc94986	-0.098284766
242	0x3e000ec6	0.12505636
243	0x3d644b9b	0.055736165
244	0x3d8912cc	0.06693038
245	0x39f5a3a1	0.00046851955
246	0xbca4be27	-0.020110203
247	0x3d8ac38b	0.06775578
248	0xbe12db8f	-0.14341567
249	0xbe0bf32e	-0.13666984
250	0xbd994b2d	-0.07485042
251	0x3e3276b9	0.17428102
252	0xbe0e1a44	-0.13877207
253	0x3deea63e	0.11652802
254	0xbcd31d12	-0.025770698
255	0xbdb99ea1	-0.09063459

model.decoder.bias f4 [12]
0	0x3cb2e313	0.021836793
1	0xbc7ee3c7	-0.015557236
2	0x3d143a5d	0.036188472
3	0xbcbafb28	-0.022824839
4	0xbc9ae256	-0.018906754
5	0xbd5bdad9	-0.053675506
6	0xbcce042a	-0.02514847
7	0x3dadd2ec	0.08487496
8	0x3d2e96fe	0.042624466
9	0x3cbaa374	0.022783019
10	0x3d372cbf	0.044720408
11	0x3d5db3bf	0.054126497

exp_avg f4 [32, 1]
0	0x3a279d16	0.0006393952
1	0x3b70bb18	0.003673261
2	0x3bcf0245	0.006317409
3	0x3b249512	0.0025113267
4	0x3aaa847a	0.0013009452
5	0xbbda65a4	-0.0066649485
6	0xbb88e9ee	-0.004178277
7	0xbc1bac29	-0.009501495
8	0x3ab44e90	0.0013756324
9	0xbafc20dc	-0.0019235867
10	0xbbbfc4fe	-0.0058523407
11	0xbba68ccc	-0.0050827023
12	0x3b8a6b52	0.0042242194
13	0xbc3c0bf5	-0.01147746
14	0xb88740a0	-6.449339e-05
15	0xbb8bbf16	-0.0042647226
16	0x3c1ad6b1	0.0094506005
17	0x3b692471	0.00355747
18	0x3b2d4094	0.0026436197
19	0x3ab6d3ee	0.0013948658
20	0xbb82fde6	-0.003997552
21	0x3bd48eb5	0.0064867386
22	0xbb58365b	-0.0032991383
23	0xbae9cc64	-0.0017837402
24	0xbafea1bc	-0.0019426863
25	0xbb4b590c	-0.0031028418
26	0xbb69ba5e	-0.0035664062
27	0x3b44a29e	0.0030004154
28	0x3b415eae	0.0029505896
29	0x3bacf718	0.0052784793
30	0x3be07635	0.006850029
31	0xbbd8cebd	-0.006616442

exp_avg_sq f4 [32, 1]
0	0x3b12a011	0.002237324
1	0x3bf6cbcf	0.00753162
2	0x3b4c30c0	0.0031156987
3	0x3b67899a	0.003532982
4	0x3ba0d572	0.004908257
5	0x3c9b6084	0.01896692
6	0x3be59d40	0.007007271
7	0x3aed0f94	0.0018086308
8	0x3b524269	0.003208304
9	0x3ae58852	0.001751194
10	0x3c25e7be	0.010126052
11	0x3b825378	0.0039772354
12	0x3c3221f8	0.010872357
13	0x3c1c8bbb	0.009554799
14	0x3baeb4db	0.0053316182
15	0x3ae50680	0.0017473251
16	0x3af07906	0.0018346615
17	0x3c16f264	0.009213064
18	0x3b702c1c	0.0036647385
19	0x3b18e97d	0.002333253
20	0x3aec6b35	0.0018037321
21	0x3b381a47	0.0028091834
22	0x3b044b08	0.0020186324
23	0x3b337ff9	0.002738951
24	0x3a84e864	0.0010140059
25	0x3ad720ae	0.0016412938
26	0x3b5ce42a	0.0033705332
27	0x3bf23c96	0.0073924763
28	0x3b2e1818	0.0026564654
29	0x3baa2a63	0.005193041
30	0x3c0ad280	0.008473039
31	0x3b8d8fbf	0.0043201144

exp_avg f4 [32]
0	0x3ad1a6d0	0.0015995149
1	0x3a0b4e70	0.00053141173
2	0xbb8ef44c	-0.0043626186
3	0xbbb9b197	-0.0056669223
4	0xbc2cc32a	-0.010544578
5	0x3af8ea40	0.001899071
6	0x3bec4b0b	0.0072110943
7	0x3bf75f90	0.0075492337
8	0xba4ad110	-0.0007736841
9	0x3bdc4c29	0.006722946
10	0x3c2ba5c6	0.010476535
11	0xbb47d5cc	-0.0030492423
12	0xba2952e0	-0.0006459188
13	0x3bdb5440	0.006693393
14	0xbba72c80	-0.0051017404
15	0x39d5b6c0	0.00040762685
16	0xbb4227d0	-0.002962578
17	0xbbe282b4	-0.0069125537
18	0xbae0d720	-0.0017153956
19	0xbb32c1ce	-0.002727616
20	0x3b5e9cce	0.0033967975
21	0xbbfc60a2	-0.007701949
22	0xbbca8748	-0.0061806776
23	0x3aec4860	0.001802694
24	0x3b2d6f51	0.0026464055
25	0x3b4b0f32	0.00309844
26	0x3ad3e265	0.0016165493
27	0xbc05cc50	-0.008166388
28	0xbb0880c6	-0.0020828708
29	0x3b0100b5	0.001968426
30	0xbb98de6c	-0.0046651866
31	0x3c191fb6	0.009345939

exp_avg_sq f4 [32]
0	0x3bb8aa23	0.0056355163
1	0x3cb8f2b9	0.022576677
2	0x3c9bc27f	0.019013641
3	0x3b22458a	0.0024760687
4	0x3ca6bcb1	0.020353647
5	0x3d22ce91	0.03974778
6	0x3c924a1b	0.017857602
7	0x3c46981a	0.012121225
8	0x3c3bc38b	0.011460195
9	0x3adc2a29	0.0016797233
10	0x3c1805cd	0.009278727
11	0x3a59e184	0.00083114975
12	0x3d295149	0.041337285
13	0x3d1db18f	0.03849941
14	0x3cd0796f	0.025448529
15	0x3bb756ad	0.0055950494
16	0x3a4aa1fb	0.00077298254
17	0x3d45cec4	0.04829289
18	0x3a4c9003	0.0007803442
19	0x3b0bede6	0.0021351515
20	0x3afeba39	0.0019434161
21	0x3c88ea56	0.016713303
22	0x3b903792	0.0044011557
23	0x3aff72a8	0.0019489126
24	0x3a3f6533	0.00073011516
25	0x3a0c394c	0.0005349114
26	0x3a5bf1ae	0.00083902
27	0x3b55a884	0.0032601664
28	0x3b54092f	0.0032354107
29	0x3b060540	0.0020449907
30	0x3ab0bf72	0.001348479
31	0x3b7d02ff	0.0038606522
