logs/epoch=98-step=9900.ckpt (torch, 248467 bytes, 33 tensors)

model.encoder.weight f4 [32, 1]
00000000: d48a 473f e1df f7be 50f7 4ebf b8a1 06bd
00000010: 2b43 073f 4740 e3bd 9c69 53be f7af 2cbd
00000020: ca73 a53e 100d af3e 8e3a bc3e 107e aebe
00000030: dbd5 cf3e 1b02 e63e 9fb2 2a3f 1de5 483f
00000040: f9f7 73bf 92ea 243f dbc8 5d3f 7a71 48bf
00000050: e93a a83e 4fe3 7abe d336 0f3d 17db 16bf
00000060: d636 31bf c8e6 a33e 2d5e 2bbf 2bc9 20bf
00000070: 60b9 983e 7db3 e43e 5ae9 71bf 7f6f 703f
0.7794621 -0.48412994 -0.8084612 -0.03286907 0.52836865 -0.11096244 -0.20645756 -0.04216
0.32314903 0.34189653 0.36763424 -0.34080553 0.40592846 0.4492348 0.66678804 0.784746
-0.9530025 0.64420426 0.86634606 -0.7829815 0.32857445 -0.24500774 0.034964394 -0.58928055
-0.692243 0.3201201 -0.66940576 -0.6280696 0.2982893 0.4466819 -0.9449669 0.9392013

model.encoder.bias f4 [32]
00000000: c948 cc3e f95d 61be bfd7 4fbe d17a 383f
00000010: facc 343f a977 25bf 255b b0be a95c b33e
00000020: 31bb 97bd 2567 05bd 36d7 593e 2701 983e
00000030: b4dc 333e f709 e13e d9ec 693f 9533 2e3f
00000040: 5d26 313e 5d75 573f 077e 20bf afd8 62bf
00000050: d862 01be a0f3 9f3e dee7 24bf 89ae 303f
00000060: 1649 77bf 2d2e 1fbf 882b 52bf 9140 58be
00000070: c939 a63d 51a3 b03e b8bf ba3e da77 783e
0.3989928 -0.22008504 -0.20297144 0.720624 0.7062527 -0.6463571 -0.34444538 0.35031632
-0.07408751 -0.03256907 0.21273503 0.2968838 0.1756466 0.43952915 0.91377026 0.6804746
0.1729979 0.8416346 -0.626923 -0.8861188 -0.12635362 0.3124056 -0.644163 0.6901632
-0.96595895 -0.62179834 -0.82097673 -0.2111838 0.081164904 0.344996 0.36474395 0.2426447

model.node_embeddings.emb f4 [207, 32]
00000000: e61c dcbe ca74 7bbe 2efe 943e 4389 a3be
00000010: d60c b93e 84a8 dabd 12c9 88be a3f4 1e3e
00000020: f804 983e 2786 013f ec45 f7bd 0fe4 a93e
00000030: 72c7 d63c 8b3f 07be 01de 253e 9cdb dbbe
00000040: 03a7 aa3d 5e92 51bd d4f0 80be 4395 64bd
00000050: e931 a03d 9083 c4bd f6fb a6be 6b72 8cbe
00000060: c55c 1ebd acb4 7cbe 6c80 bebd 2609 35be
00000070: 9729 f23b d024 733e 0ee4 7cbc 2368 333d
00000080: 270d 4d3c a8fc f43d bf78 97be 32cb db3d
00000090: 78ee debd 4321 033c 44ff 253d 97a1 94be
000000a0: 0a1e a3bd fe64 50be 73e7 b13e 013e 273b
000000b0: 35f7 20be 3f7f 8c3e 43f0 e43d 2017 953d
000000c0: 9f3f d6bd 5233 90bd d5f8 433d f62d 2a3d
000000d0: b050 19be e307 183e 9d0f 0f3f d612 4c3e
000000e0: 538c 8e3e 802b b93d 067e e3bd 4409 2fbe
000000f0: 9569 8c3d 9e8e fcbd 53c7 bfbd 7b7d 0bbe
00000100: bf66 0c3e 6515 cfbc 1a0d e53e 6ba9 afbe
00000110: cc92 a4be f64f 29be 34ae 83be 0ecc 3c3e
00000120: e8df c93d 1022 4e3e 2674 db3c 4a06 cb3d
00000130: e443 b1bd 554a 97bd 5728 e5bd 29f0 b4be
00000140: c63e ae3e a8d7 7a3c 65d5 3b3e b35a 2f3d
00000150: 61a1 8d3d 3492 09bf 678c dd3d b67d 66bd
00000160: c231 d23e 1106 5a3e 4bc8 403d 0e1b 2b3e
00000170: 8ca3 8c3d 8c8a be3e c368 53be 8f77 8dbe
00000180: bbf7 703d 3513 833d 8834 1dbf 4f62 053e
00000190: d3f8 093e c9a4 103e c1b5 78be 04aa 4abd
000001a0: 1137 71bd 2a01 bbbc 4daf 593d bdc7 f63d
000001b0: 9519 d03e 3079 87be 69a7 fbbd 7f72 b2be
000001c0: f3cd 0e3e 1c43 c13e 46dc 7bbe 0724 22bd
000001d0: 716f a13e 119d 033f 7cff 25be 9dd4 c73e
000001e0: ed41 3bbf fb8d 7cbe b9b1 18bd 3c95 96be
000001f0: 6f72 c13e 7cd7 c73d 7d41 c2be d1cb 503e
00000200: 34b2 4ebd b240 4b3f 4ac4 593f 7bd6 113f
00000210: 626f 2a3b 2efb 613e e8fb 2b3e d344 203d
00000220: 614f 09bf fbdc 033e 95a2 4ebe 6557 a1be
00000230: 8461 b33e 9e19 60be e49e bcbe fb2d 97be
00000240: c482 203e f660 b23d 00ad 2e3f 5815 1ebe
00000250: 32ed f33e 0508 4fbe 33d0 96bd 9940 f73d
00000260: babe c43e c05e 663f d637 28be bfff e83d
00000270: f9eb 10bf 450b 18be e094 b33e 2a28 79bd
00000280: 0892 8f3e 0927 60bf 1647 4bbf 7824 deb8
00000290: 4d01 92bc b47a d03e 468a 863c af9c 8a3e
000002a0: 5404 6ebe f0d6 b23d 4369 ac3c 77d8 603e
000002b0: 3ad0 b43e 0ac5 903e 9098 f73e 2028 d73e
000002c0: 58ae 323e c5ed c23d 11ca bebe 319f 7bbe
000002d0: eddf c1bc eb59 cebe 1f0f 763f b770 f2be
000002e0: b7b5 5a3e 34cc b1bd d061 e03d c3f1 79bd
000002f0: b736 c73e 8c31 2d3d 5e90 6c3e 56f7 87be
00000300: b60f 11be 139e 01bf 86f3 f2bb e954 3b3e
00000310: 2e4c 973e 50db 163f 53f2 5e3e da39 a9be
00000320: 9213 1a3f aceb 1cbf cb02 083e 6817 42be
00000330: b53e c4bd b303 0d3e 449a 82be a7a9 77bd
00000340: 93cf bfbe 9614 3f3e cd73 ac3e 3734 1ebe
00000350: 5103 523f df57 9a3b 17a9 53bc 4b5f fc3e
00000360: 8cba 123f 33bc 8fbd 5be2 c1be 09ce fdbd
00000370: de7d 32bf 278e f0be ad48 efbd ee12 233e
00000380: b3d8 e33d 94d2 663e 004a 1dbe c18e 903d
00000390: 76eb 86be 4d8d 6abc bb4e 443e cf8c c9bd
000003a0: 75e0 80be 2da2 bcbe 67cd a93d ad8a 61be
000003b0: ff70 513e 1c6d b2bd 657f 83be 19b3 1b3c
000003c0: 25d6 4f3e bc74 68bd 890c 283e 4427 4e3c
000003d0: 1db8 95be 405d 453e 081b fc3e c847 9d3d
000003e0: 4141 823e 3df7 503e 3e5b bebc ef96 1bbd
000003f0: 8f10 ccbd cb9b 0abe 90d2 933d 0fe3 debd
-0.42990798 -0.2455627 0.29100174 -0.3194066 0.36142606 -0.10676673 -0.26715904 0.15523009
0.2969129 0.50595325 -0.120738834 0.33181807 0.02621815 -0.13207833 0.16197969 -0.42940986
0.08332636 -0.051164977 -0.25183737 -0.05580641 0.078220196 -0.09595406 -0.32614106 -0.27431044
-0.03866269 -0.24678296 -0.09301838 -0.17679271 0.007390212 0.23744512 -0.015435232 0.043800484
0.012515343 0.11962253 -0.2958431 0.10732116 -0.10885328 0.008003536 0.040526643 -0.29029533
-0.07964714 -0.20351025 0.34746894 0.0025519135 -0.15719302 0.2744083 0.11178639 0.07279801
-0.104613535 -0.070410386 0.047844727 0.041547738 -0.14972186 0.14846759 0.558832 0.1992906
0.27841434 0.090415 -0.111080214 -0.17093378 0.06856076 -0.123318896 -0.0936419 -0.13622086
0.1371107 -0.025278756 0.44736558 -0.34308943 -0.32143247 -0.16534409 -0.25718844 0.18437216
0.0985716 0.20130181 0.026788782 0.09913309 -0.08655527 -0.073872246 -0.11189335 -0.35339478
0.34032267 0.0153102055 0.18343122 0.042811107 0.06915546 -0.53738713 0.10817795 -0.05627223
0.41053587 0.21291377 0.047066014 0.1670954 0.068671316 0.37215078 -0.20645432 -0.27630278
0.058830004 0.06400148 -0.6140828 0.13025783 0.13473825 0.1412536 -0.24288084 -0.049478546
-0.058890406 -0.022827704 0.053145695 0.12049816 0.40644518 -0.26459646 -0.1228779 -0.3485298
0.13945751 0.37746513 -0.24595746 -0.03958514 0.31530336 0.5141154 -0.16210741 0.390294
-0.7314747 -0.24663536 -0.037278865 -0.29410732 0.37782618 0.09757897 -0.3794059 0.2039025
-0.050462916 0.7939559 0.8506514 0.56967896 0.002600633 0.22068474 0.16795313 0.039128136
-0.5363675 0.12877266 -0.20179208 -0.3151199 0.35035336 -0.21884772 -0.36839974 -0.29527268
0.15674883 0.087099 0.6823273 -0.1543783 0.47641903 -0.20217903 -0.073639296 0.12072868
0.38426763 0.8998833 -0.1642755 0.11376905 -0.56610066 -0.14848049 0.3507452 -0.06082932
0.280411 -0.8755956 -0.79405344 -0.00010592578 -0.017822886 0.40718615 0.016423356 0.27072665
-0.23243839 0.08732402 0.021046286 0.21957575 0.35315114 0.2827533 0.48358583 0.420228
0.1744932 0.09518007 -0.3726354 -0.24572445 -0.023666346 -0.40302977 0.9611682 -0.4735162
0.21358381 -0.08681527 0.10956156 -0.061021578 0.38908932 0.04228358 0.23101947 -0.2655589
-0.1416615 -0.5063183 -0.007414284 0.1829411 0.29550308 0.58928394 0.21772127 -0.3305195
0.6018611 -0.61297107 0.13282315 -0.18954241 -0.09582273 0.13770942 -0.2550832 -0.060464527
-0.37463054 0.18660197 0.336821 -0.15449606 0.8203631 0.004710182 -0.012918732 0.49291453
0.573159 -0.07018318 -0.37868008 -0.12392814 -0.6972331 -0.46983454 -0.11683784 0.1592519
0.111253165 0.22541267 -0.1536026 0.07058478 -0.26351517 -0.014315915 0.19170658 -0.0984131
-0.25171247 -0.3684248 0.082911305 -0.22025557 0.20453261 -0.08712217 -0.25683132 0.009503149
0.20296533 -0.05675195 0.16411032 0.012582604 -0.2924203 0.19273853 0.49239373 0.07679707
0.2544041 0.20406814 -0.023236867 -0.03798574 -0.09964096 -0.13535993 0.07217896 -0.10883152

model.time_nn.rnn.weight_ih_l0 f4 [96, 32]
00000000: b39a 2c3d 7160 92be 7fc8 02be 2ac0 2abe
00000010: dba8 ab3b 8713 07bf 73cf 4dbf 32f6 4abe
00000020: 91c2 2f3f 8bf3 68bd 35ca 823e b5e5 a7bd
00000030: 87da 50be 9f4d 373e 3d00 65bd 1e14 ff3c
00000040: 14db 84bc 8e96 5ebe 1956 46be fc5b f43d
00000050: 51e2 e5bd 5c55 25be b543 6ebc 22a0 b73c
00000060: 4850 e2be f535 0fbe fd97 d23d 8852 25bd
00000070: a96a bb3d 04a8 263f 5595 28be 5a85 cb3d
00000080: d2ba 69be 868e 123f 7dbb 7d3f e567 90be
00000090: 178c 203e dc03 f33d ea2e 523e 8fe6 25be
000000a0: fd76 00be 4528 663d 6a1b 78ba 4652 d7bd
000000b0: 3eef 88be 2849 bbbe 02b4 d4bc 69dc 7ebe
000000c0: 6839 5c3e 882e 81be 96cd c1bd 045a 07bc
000000d0: e902 72be ab17 84be 82bb 043e e65e 75be
000000e0: d0c3 8a3e 3aa8 40bb de7b 303e 7579 ca3d
000000f0: cefd 83bf 4ba6 7d3d 89b9 773e 0512 ccbe
00000100: 541f 63be 4cea 9ebc 8b87 053f ca89 a7bd
00000110: 24f0 ce3d 42a8 2fbd 8b88 4ebe 0300 f93d
00000120: b4b8 343e f58f 063e 4485 863d b1b4 d53e
00000130: 0a52 34bf 1f22 80be d647 9d3c 8569 45be
00000140: b10e 813e f4fb 0cbe b348 afbe 4d05 783d
00000150: 1d2e a03d 9ef3 9dbe c220 4dbe ff90 503d
00000160: 3858 28bb 4c52 3cbd 8887 fd3d 7cae c03e
00000170: dd74 d5be a32b 8fbe 8e6d 1e3d 044b b4bd
00000180: 61ef 26be 4dd1 2d3f 14bf 283f dd01 2fbe
00000190: 3e70 7ebe a502 58bc 2d6a 67bc 5493 debd
000001a0: 802e 85bf f167 25bf cce4 11be ef69 073f
000001b0: 409c e2be 4838 86be 52f2 99be 8f6c 8cbe
000001c0: c063 3f3f f355 7fbd 1073 3cbf 67f7 803e
000001d0: 3007 9fbe 23df 013d 9b83 02be 7acf a73e
000001e0: 4014 743e f8bf 4ebd 7144 873d 2bd8 393e
000001f0: 96fa 5dbf 792e 5bbe ffcc f23e 26a6 88be
00000200: ab1e efbd dc44 f5bc 93b0 db3e d444 bbbe
00000210: 0d1c b9be f354 92be 128f 98bf ec5e 5b3e
00000220: ffb6 a73e 7dd0 853e 0759 3d3e 1318 253d
00000230: e43d a13c 2eee 463e 1406 27bd 50b1 76bd
00000240: 51b7 cebc e1db bbbe 86ed a4bb 16e7 343e
00000250: 3bd1 0ebc 8c92 babe 06e6 83bd 2918 6a3e
00000260: 81bb 193f 165a 3d3e 0756 a23d a53f 433c
00000270: 49a1 dfbd 10db d43e 0c5f c23d fb60 8abb
00000280: 0db9 30bd ed5a 81bd 8637 653c b6c1 d53d
00000290: 4b20 ca3d 0842 4d3e d573 78bc 6ed8 963d
000002a0: cf7c 943e a18e 77bf 1da4 d33c a608 8e3e
000002b0: bdbc a6be 1cda 3cbe 450f 863d d4b3 9bbd
000002c0: ef42 083e cc75 77bd 73cd 2ebe bec3 30bd
000002d0: 089e e2bd 425e bbbd d311 c8bd 8d4e 863e
000002e0: 9229 473e a54c ae3c f062 813e 9b45 133e
000002f0: 5310 32bf a9ae ecbd 399d 1a3e 93fe 51bd
00000300: 85d9 a73a 793e afbe 9400 e3be b780 a9bd
00000310: b49d 373e fbb3 48be 9c10 e43e 4366 f8bd
00000320: 87f8 81bd 3248 003e bbe6 68bd b040 843d
00000330: aba6 18bb 088f 853d c161 883e 45af 063e
00000340: 6462 81bd d0cf 8b3d 7c8e e43d 2c1e 31bd
00000350: 531f cc3d 6dad fc3d 2b80 a13d b858 51bd
00000360: a635 a03d d518 cabd 4830 4b3e be14 d53d
00000370: 63b2 843e ba0d 003e ffde 3ebe f508 b1bd
00000380: 2318 843e 2742 41be db96 61be 0c64 16be
00000390: b15b 673e d831 86bd 3da8 fabd b65e c03d
000003a0: 9b60 ce3d 7adc 623e fcc2 90bd 02e6 c6bd
000003b0: 65d7 103e c8a4 dabd 9fba e4bd 3241 a63c
000003c0: 8faa 97be 5f27 303e ddaf 993e d028 10bd
000003d0: 558c 2a3e dd6a d5bd 4da4 41be 741b e1bd
000003e0: 795f 18be cfce 4dbd 33b6 61bd 5fa0 c63d
000003f0: 6deb 24bd fad7 d1bd 9647 13bf 5078 a63d
0.04213972 -0.28589204 -0.12771796 -0.16674867 0.005238635 -0.5276417 -0.8039467 -0.19820479
0.6865626 -0.056872886 0.25544897 -0.0819811 -0.20395862 0.17900704 -0.05590843 0.031137522
-0.016217746 -0.2173712 -0.19368781 0.11931607 -0.11224807 -0.16145843 -0.01454251 0.022415224
-0.44201875 -0.13985427 0.10282896 -0.04036191 0.09151203 0.6510012 -0.16463216 0.09937544
-0.22825173 0.57248724 0.9911421 -0.28204265 0.1567844 0.118659705 0.20525709 -0.16201232
-0.1254539 0.056190748 -0.0009464534 -0.10513739 -0.26745027 -0.3657925 -0.02596474 -0.24888767
0.21506274 -0.25230813 -0.094630405 -0.0082612075 -0.23633923 -0.25799307 0.12962154 -0.23961982
0.27102518 -0.0029397146 0.17234752 0.09886447 -1.031183 0.061926167 0.2419187 -0.39857498
-0.2217992 -0.01939883 0.5215995 -0.08180578 0.10104397 -0.042885073 -0.20169275 0.12158205
0.17648584 0.13140853 0.06568387 0.4173942 -0.7043768 -0.25026032 0.019199293 -0.19278534
0.2520652 -0.13767987 -0.34235153 0.06055193 0.078212954 -0.30849928 -0.20032027 0.05091953
-0.0025687348 -0.045976922 0.12379366 0.3763312 -0.41690722 -0.2796298 0.0386787 -0.088033706
-0.16302253 0.6789749 0.6591656 -0.17090555 -0.24847504 -0.013184224 -0.014124435 -0.10867944
-1.0404816 -0.64611727 -0.14247435 0.52896017 -0.44259834 -0.26214814 -0.30067688 -0.27426574
0.7476158 -0.062337827 -0.7361307 0.25188753 -0.3106017 0.03170694 -0.12745516 0.3277548
0.2383585 -0.050476044 0.06604851 0.18148868 -0.8671049 -0.21404447 0.47422025 -0.2668926
-0.11675771 -0.029940061 0.42908153 -0.3657595 -0.36154214 -0.28580436 -1.1918662 0.21422929
0.32756802 0.26135626 0.18490992 0.040306162 0.019682832 0.19426796 -0.04077728 -0.060227692
-0.025233896 -0.36691192 -0.005033198 0.17666277 -0.008716877 -0.3643993 -0.06440358 0.22860779
0.60051733 0.18491396 0.07926565 0.0119170295 -0.109194346 0.4157338 0.09490785 -0.0042229868
-0.04314523 -0.06316171 0.013990289 0.10437338 0.09869441 0.2004472 -0.015164335 0.073654994
0.2900147 -0.9670201 0.025835091 0.27740973 -0.3256587 -0.18442577 0.06545881 -0.07602659
0.13306783 -0.060415074 -0.1707056 -0.043155424 -0.11065298 -0.091488376 -0.09769025 0.26231804
0.19449452 0.021276781 0.25270796 0.14382021 -0.6955616 -0.11556751 0.15099038 -0.05126817
0.0012805915 -0.3422735 -0.4433638 -0.082765035 0.17931253 -0.19599907 0.44543922 -0.1212888
-0.06346231 0.1252754 -0.056860667 0.06457651 -0.0023292701 0.06521422 0.2663708 0.13152798
-0.06317595 0.068267465 0.11159989 -0.043241665 0.09966912 0.12337766 0.07885774 -0.05111
0.078227326 -0.098680176 0.19842637 0.10404347 0.25917348 0.12505236 -0.18639754 -0.086442865
0.25799665 -0.18872891 -0.22030203 -0.14686602 0.22593571 -0.06552476 -0.1223912 0.09393065
0.1007702 0.22154418 -0.0706844 -0.09711839 0.14144666 -0.10675961 -0.11168408 0.02029476
-0.29622313 0.17202519 0.30016986 -0.03519517 0.16655095 -0.10420773 -0.18910332 -0.109915644
-0.1488017 -0.050246056 -0.0551054 0.09698557 -0.040263582 -0.102462724 -0.57531106 0.081284165

model.time_nn.rnn.weight_hh_l0 f4 [96, 32]
00000000: e787 573e 54f6 963d 662e 073e b935 83bd
00000010: 7292 e13e 1878 f0bc 1fb1 1cbd aeff 773d
00000020: db87 023e fe31 0dbd 0bef 0d3f a431 423f
00000030: 6cf8 88bb d27e 513d 5783 0c3e d3fe df3e
00000040: f240 893e b368 df3e 8ee8 adbe ff5d 67bd
00000050: e31a 28be 7928 83b8 7841 983e 9982 e33d
00000060: d94b 343d 3e0e 04be f8b9 803e 0250 103e
00000070: 98ee a8be 9b27 dfbe 9e7b ffbd c812 c9bd
00000080: 82cf 1dbe 1c0a 17be 3701 71bd c3e3 243e
00000090: 4aab b6be 502d b43d 626e 64be cabe 6e3e
000000a0: 64f3 00bf 6b09 eabb 2b38 c13e e54e 873e
000000b0: 5df3 183d fc9e 81bd 3fe6 3dbe bdca a43e
000000c0: db8a 283e 5f76 44bc 241d b93e 14a3 5cbe
000000d0: 167d 09bd 7a10 b6be 9959 c03e 1703 2e3e
000000e0: 9cb6 223e 3886 7abd c87e ad3e f510 13bf
000000f0: 2172 44be 62e4 bbbc 255a 06bf 9354 c23e
00000100: 9ff2 2cbf 5762 933d f809 a9be cfdc 023e
00000110: bb7c efbd 9004 853e 1722 073e 8e5d 91bd
00000120: af1c 0ebf 6d36 4e3c 06c1 303e 5907 fbbd
00000130: b63f 083f 5d5d 90be 9ee0 23bd b2df 323e
00000140: 16fc 49be c7c1 38bd 84d5 7d3d da35 8fbd
00000150: 7f3b 893d 157c 6bbe 5d34 6fbc 4470 43bd
00000160: f14f 453e e099 04be 11aa de3e a8cb 5fbf
00000170: 3b91 263e 458d 40be e99f 103e 4091 7e3e
00000180: 511d b53e 7522 043f 3ff2 263d a790 0fbf
00000190: 7f4b 283e 6a22 48be 7b4f 5f3e 7db5 64bd
000001a0: 62dc b0be 1e3f bf3d 65d2 8d3d 46b9 123d
000001b0: 8fe6 27bf 3a7d 87bd 6559 8bbe a260 0ebe
000001c0: 2d2a 38be c2ab 1cbe 2164 90bd 89d7 243d
000001d0: 20b1 43bd 696d 923f 0648 683f c627 403e
000001e0: 43db 563c 04d7 623f a1c3 a33d 2a21 643e
000001f0: add7 cd3e 01ca 043e 376f 193b 9808 e33e
00000200: b9a6 0dbd b920 0b3e 3c75 eabd 2f60 863e
00000210: c25b 3f3e 934d 573e 73d0 453e afbe 54bc
00000220: db73 c7be 4f8f 0b3f e043 85be 096f 6fbe
00000230: 6035 4fbe 0832 9ebd 9ce6 36bf 4c9f 18be
00000240: a68b 8cbe 24aa 96be f72b 9c3e 1288 d0bd
00000250: 8f82 ad3e d88e babd 28c0 883d 237e c2be
00000260: 1d07 27bd 6c0c b7bb 673c f73e a89a 24bc
00000270: a096 2f3f a6c0 143f d92d 23be d061 0f3e
00000280: d086 95be e3a3 bcbe eb05 0f3e 0550 173f
00000290: 23b6 883d 6f8f 4a3f 7530 a2bd cde6 1d3e
000002a0: bfd7 473d 138e 5abe 403a 803d d0a5 07bf
000002b0: e6a3 603d a3ea 653e c594 59bd ebab 9e3d
000002c0: b27e a63d 9e82 96bc 31bf db3d a6ef 8fbd
000002d0: 77fa b13d faba f1be 8a56 83bd 3e49 c73d
000002e0: 6752 f1bd 5a66 193e 7e96 ee3d be3b 36be
000002f0: fb4e 3dbe e75f 33be 8d21 033d dae4 64be
00000300: 985b 433e 6988 b13d 3f3a 66bd 046a 3e3e
00000310: 70d8 b9bd 1286 fc3d 4fe0 b5be 0f99 123e
00000320: bf34 c33e 742f adbc a870 543e 5de3 213e
00000330: da74 8b3e d62c dbbd 5b03 9fbe 2d51 2d3f
00000340: 9cbc 8bbe 5e17 c63d d7be 8abd 593a aebe
00000350: ea75 dbbd ee80 30be 9411 863c 01bc 69be
00000360: 9909 95bd 1123 16be 2c82 cf3d fe6f 72be
00000370: 1371 22be 4819 cdbe f293 debe 4db1 19bf
00000380: 4e37 2a3e dc77 063b bae1 29be 936c 5dbe
00000390: 7b2e 823d 2af7 2e3d ded9 11be 92ed 4d3d
000003a0: 9bb1 2abe 1add 21be d061 d43c a7aa b73e
000003b0: b810 16be 47a3 63be 26d1 183e 4468 21be
000003c0: aa6d 0b3d 8e3b e1bb 04ac 6c3d 1144 a3bd
000003d0: 2f76 8d3d dc9c 37be 0ae1 1dbc c3df 6d3e
000003e0: 35e1 6e3e 7b3b 733d 4565 85be cb89 49be
000003f0: 7001 59bd 9c52 a73d c5fc 26be 628e 993e
0.21047936 0.07371202 0.13201293 -0.06406731 0.4405704 -0.02935414 -0.038254853 0.06054657
0.12747137 -0.034471504 0.55442876 0.75856996 -0.004180005 0.051146336 0.13721977 0.43749103
0.26807362 0.43634567 -0.33966488 -0.056486126 -0.16416506 -6.2541054e-05 0.2973745 0.11108894
0.044017646 -0.12896058 0.25141883 0.1409302 -0.32994533 -0.43584904 -0.1247475 -0.09818035
-0.15411189 -0.1474995 -0.05883905 0.16102509 -0.35677558 0.08797705 -0.22307733 0.23314968
-0.50371385 -0.007142236 0.37738165 0.2642738 0.037341464 -0.06329152 -0.18544863 0.32185927
0.16459219 -0.0119911125 0.36155045 -0.21546584 -0.033566557 -0.35559446 0.37568358 0.16993366
0.15889972 -0.061163157 0.3388579 -0.5744775 -0.19184162 -0.02293605 -0.524813 0.3795515
-0.6755771 0.07196491 -0.33015418 0.12779544 -0.11693712 0.25980043 0.13196598 -0.07097922
-0.5551252 0.012586218 0.17261133 -0.12257261 0.53222215 -0.2819623 -0.040009134 0.17468145
-0.1972507 -0.045106675 0.061971202 -0.06992693 0.06700801 -0.22996552 -0.014599887 -0.047714487
0.19268776 -0.12949324 0.43489125 -0.8742013 0.16266339 -0.1880389 0.14123501 0.24860096
0.3537393 0.5161508 0.040758368 -0.56080097 0.1643505 -0.19544378 0.21807663 -0.055837143
-0.3454314 0.093382105 0.06924895 0.03582122 -0.6558618 -0.06615682 -0.2721664 -0.1390405
-0.17984839 -0.15299895 -0.07050348 0.040244613 -0.04777634 1.1439639 0.907349 0.18765172
0.0131137995 0.8860934 0.07996298 0.22278276 0.4020361 0.12967683 0.0023412236 0.44342494
-0.034582827 0.13586701 -0.11448142 0.26245257 0.18687347 0.21025686 0.19317798 -0.012984916
-0.38955578 0.54515547 -0.26028347 -0.233822 -0.20235205 -0.077243865 -0.7144563 -0.14904517
-0.27450293 -0.29426682 0.30502293 -0.10182203 0.3388867 -0.091092765 0.06677276 -0.3798686
-0.040778268 -0.0055861976 0.4828827 -0.010046639 0.6858921 0.5810646 -0.15935458 0.14002156
-0.29204416 -0.36843786 0.13967101 0.59106475 0.06675365 0.7912511 -0.07919399 0.15420075
0.048789736 -0.2134326 0.0626111 -0.52987385 0.054843806 0.22452788 -0.053120393 0.077476345
0.08129634 -0.01837283 0.10729826 -0.07028131 0.086903505 -0.47212964 -0.064129904 0.09730767
-0.11783295 0.1498045 0.11649798 -0.17796227 -0.1848716 -0.17517053 0.03201442 -0.22352925
0.19077909 0.08668596 -0.05620789 0.18595129 -0.09074485 0.123302594 -0.35522696 0.143162
0.3812618 -0.021140791 0.207461 0.15809388 0.27237588 -0.10701911 -0.31057248 0.6770199
-0.27292335 0.09672426 -0.06774681 -0.3402889 -0.1071585 -0.17236683 0.016365804 -0.22825624
-0.07277221 -0.14661814 0.1013225 -0.23675534 -0.15863447 -0.4005835 -0.43472248 -0.60036165
0.1662266 0.002051822 -0.16590014 -0.21623449 0.06356522 0.042716183 -0.14243266 0.050275393
-0.16669314 -0.15807 0.025925547 0.35872385 -0.14654815 -0.22230254 0.14923534 -0.1576243
0.03404013 -0.0068735546 0.057781234 -0.07971967 0.06907307 -0.17930931 -0.009636173 0.2322989
0.23328097 0.059382897 -0.26053825 -0.1968147 -0.052979887 0.08170053 -0.16307361 0.29991442

model.time_nn.rnn.bias_ih_l0 f4 [96]
00000000: a108 d83b a0a0 96bd a161 b3bd 90a7 e73c
00000010: 0f67 e03d d38b 96bd ca57 38bc 28c3 b3bd
00000020: 1096 b3ba 5fe4 b83d 26d9 89bc bbaf 6fbd
00000030: 8943 1f3e 60a8 cfbd eb01 3dbd 14ca d53b
00000040: ce41 7ebe fd12 313d 695c 06be 72f6 a63c
00000050: 4721 363d 4846 163e 8369 80bd 3ca0 4fbe
00000060: 3032 cd3d 30a2 063e 912f 893c 7f09 ef3d
00000070: 85c6 c73d fcae 0e3d 59fc 813b dbd7 073d
00000080: d46b 31bd 2aa8 08be 1b5e 8f3d 87db fdbc
00000090: 48fc a2be 3446 e8bd 3504 b23d 056a 5bbe
000000a0: 46a9 8ebe a98a c2bd c727 9b3b 140f e33d
000000b0: fa23 0bbd 66b0 9bbc 1cd0 b2bd 5af4 12be
000000c0: 0438 83bd d87f 74be eb77 6abd 078c 673d
000000d0: cea9 94bd c3d2 f8bd 45dc 5c3e d68c 61be
000000e0: 5ad2 8cbe 2544 553e 1f2d 08be 3590 1d3d
000000f0: 9839 663e 6610 333d 3300 913e 7701 b33d
00000100: 3cf6 b33c 5826 a8bd 6601 f1bc 1b90 363e
00000110: 61de ccbd a72a aa3d 9989 b2bd 3479 223e
00000120: a21c 06bd f204 d9bd cf62 223e cce1 1d3e
00000130: bec5 2c3e 5c71 47bc 3d62 f1bd ed6f fbbc
00000140: ce5f f53d 4cca 5e3e 2e13 7cbd 1065 253e
00000150: b1c6 0e3e 1004 9dbd 949c e93d 1327 b63d
00000160: cd5d 9c3d 4acc 14bd 84b4 abbb 0501 d6bd
00000170: 9c00 a53d 5426 acbc b3bd 0abe 0571 1c3e
0.0065928255 -0.073548555 -0.087588556 0.028278142 0.10957157 -0.07350888 -0.011251399 -0.087774575
-0.0013701338 0.09027933 -0.016827177 -0.0585172 0.15553106 -0.10139537 -0.046144407 0.0065243337
-0.2482979 0.043231 -0.13121189 0.020381186 0.04446533 0.14675248 -0.06270125 -0.20275968
0.10019338 0.13147807 0.016746314 0.11671733 0.097546615 0.034834847 0.0039668498 0.03316484
-0.043315724 -0.133454 0.07000371 -0.030988468 -0.318331 -0.11341515 0.08692209 -0.21427162
-0.2786352 -0.094991036 0.0047349664 0.1108686 -0.033969857 -0.019005012 -0.087311 -0.14351025
-0.064071685 -0.23876894 -0.05724327 0.056530025 -0.0725895 -0.121495746 0.21568401 -0.22026381
-0.27504236 0.20826776 -0.13298462 0.038467605 0.22482908 0.04371681 0.28320464 0.08740514
0.021968 -0.082104385 -0.029419612 0.1782841 -0.10003353 0.083089165 -0.08717651 0.15866548
-0.03274215 -0.10596646 0.15858005 0.15418166 0.16872308 -0.012173023 -0.117863156 -0.030693019
0.11981164 0.21756858 -0.06154173 0.16151834 0.13942982 -0.076667905 0.11406818 0.088941716
0.076350786 -0.036327638 -0.005240025 -0.10449413 0.08056757 -0.02101437 -0.13548927 0.15277489

model.time_nn.rnn.bias_hh_l0 f4 [96]
00000000: 86b9 3abb 1e13 c03d 9cb9 953d 7ad8 39be
00000010: 8290 74bc b826 01bc 4d6f a53c 360b 17be
00000020: 2bf7 41be 477f ccbd 91d3 04bd d270 7e3e
00000030: 38f8 033b 9792 1fbe 512d 903d c819 f63d
00000040: 9c29 91bd 526c 05be e53b 8ebe a3e4 ec3d
00000050: ab6f 873e 88fb dc3d 58a1 333d 74c9 06be
00000060: 4226 323d 39fe dd3d b008 363e 7de3 323e
00000070: 816f 843c 6940 433c 2599 be3d 6957 0bbe
00000080: b8c3 81bd f98d fb3d 19ce b4bd 53fb 803c
00000090: 045f b6bd 75fb 9b3c 80ec 2abd 688e 893d
000000a0: b0c7 9ebe 6ef4 65bd 27bf 373d 4027 853d
000000b0: f105 a9bd ce4b 02be 9e54 4ebd 117d 12bd
000000c0: 557f 6fbd 5f04 263d 8019 86be 8811 bbbd
000000d0: 3ae5 28be bd87 7b3d 3cd1 b3bc f690 b53c
000000e0: 538c 3abe 2fe8 0f3e 15a4 8fbe 5827 123e
000000f0: 13ea 0aba 6608 843c da9c da3e cba5 f3bd
00000100: 22dc d93d 6951 03be 2b3c ce3d 698e edbe
00000110: 35a6 d83c b5ed 4e3c 8a2e 51be 81a6 9cbd
00000120: 9275 9fbe 139f 43be e232 6dbd 6807 593d
00000130: 64fe f9ba 1d18 873c a2c4 0a3e 788d 90bd
00000140: 427b ab3d 75d4 3ebd 0eb1 d23d 8c90 943d
00000150: bb1f 0f3e 6350 1abe fcd0 dcbd e196 4dbd
00000160: d319 9d3d 9c01 ea3c 9d02 b1bd bb47 c83c
00000170: 1f40 22bd 4340 533d 79c7 2cbe fcb1 b43d
-0.0028491928 0.09378646 0.07310793 -0.18148986 -0.0149270315 -0.007882766 0.020194674 -0.1475037
-0.18941943 -0.09985214 -0.032428328 0.24847725 0.0020136964 -0.15583263 0.070398934 0.12016636
-0.070880145 -0.13029602 -0.2778007 0.115670465 0.26452383 0.10790163 0.04385504 -0.13162786
0.043493517 0.10839505 0.17776752 0.17469592 0.01616645 0.011917212 0.09306554 -0.13607563
-0.063361585 0.122829385 -0.088283725 0.01574484 -0.089048415 0.019040802 -0.04172945 0.06716615
-0.31011724 -0.05614131 0.04486003 0.06501627 -0.08253086 -0.1272423 -0.050373666 -0.035763804
-0.058471043 0.040531512 -0.2619133 -0.09134203 -0.16493693 0.061408747 -0.021950357 0.02216385
-0.18217592 0.14053415 -0.28054872 0.14272821 -0.0005299162 0.016117286 0.42697793 -0.11896857
0.1063769 -0.12824024 0.1007007 -0.46397713 0.026446441 0.012629916 -0.2042791 -0.076489456
-0.31144387 -0.19103651 -0.057909854 0.05298558 -0.0019073007 0.01649099 0.13551572 -0.07058233
0.08373119 -0.046589334 0.10287677 0.07254133 0.13976948 -0.15069728 -0.10782048 -0.050192717
0.07670941 0.02856522 -0.086430766 0.024448266 -0.039611932 0.051574957 -0.16872968 0.0882301

model.space_nn.filters.weight f4 [32, 160]
00000000: 41e9 38be 1dbb 32bd 6ad2 04be ff95 cf3d
00000010: 6910 04be ed03 a63d f6c5 d33c 27e6 8ebc
00000020: 186c 343e 0ebf 1fbc 10f9 8dbd 149b 703c
00000030: 9cb8 cf3d 584c ec3d 2633 acbd 5262 c63c
00000040: bf5d cebd 0d10 35be 851b 843d 8875 883d
00000050: f131 743d c308 8abd e96a 15be a20a 06be
00000060: 8a29 9ebd 4307 9ebd 570c fd3d e902 c4bb
00000070: 752e 58bd f3f8 51bd 0943 fb3d e462 c4bd
00000080: 1bea e93b cd22 9ebd bbb6 d9bc 11a7 1e3c
00000090: c29a 863d c870 c7bd da52 ba3d e616 c3bb
000000a0: 6f01 2b3c ec7b 9c3d 8a08 4ebd 73a0 27be
000000b0: 208b 323e 25d8 d33c 7a1f 893d 1216 10bc
000000c0: 6b15 263d 3d00 93bd 9a23 613c 0a86 56bd
000000d0: 7cab b2bc 009d d73c b5fd 9bbd 256f 38bd
000000e0: 54e5 19bc 73e4 97bd 8fb7 13bd ae04 813d
000000f0: 2f93 5fba 251a 893d 4fac 9bbd 5f03 bf3d
00000100: 8644 b73d 4f1c b5bc bd5b e93c 29f6 1e3c
00000110: 4a21 953d ae1b fbbd 3de9 8c3d 98eb 1ebd
00000120: ca5f 88bd c63f aa3d 80b2 2dbc 409c 77bc
00000130: 84dc c83d 39f0 21bd ee59 a4bc dc99 acbc
00000140: ff59 e23d cdac 223c cb72 623d ab7c 31bd
00000150: ca30 79bd 732d 313d e168 8cbc bf32 5e3d
00000160: 484b 1fbd e36d 1dbe 5282 de3c e41c afbb
00000170: c692 073c c2f4 5a3d fe4d 0e3c 87e8 4bbd
00000180: 000d 3d3d 0c2f 2cbb 64e7 853d d447 053d
00000190: 60dc 433d 204c 01bd d8bb a13c b5da ce3d
000001a0: fc89 c9bc 0860 9b3c 3905 e2bd 46f6 323b
000001b0: 3bc2 e03c 1c31 c9bc 4e56 25bc 516e 1cbd
000001c0: 04ed c3bc 70ec 94bd 0691 b9bd 947d c1bc
000001d0: ebb3 6d3b 6041 c5bd fc34 e6bc b8eb 833b
000001e0: 555c 6abc 7499 5fbc c76f a83d 9f53 27bd
000001f0: 9601 593d 6232 7eba 6a83 bdbc db2e 8abd
00000200: 2718 9bbc 5e3a 9fbd 151a be3c 41e0 fabc
00000210: 483d 573d 3d2d debd 7e57 d93b 70d8 993d
00000220: 7e93 a8bd c529 b2bc f21e 8dbb e2d7 b9bc
00000230: bd27 7cbc f309 d63c ff96 ef3b 5970 9bbd
00000240: fe3b c0bd d7d0 82bd 2003 e63b 3d84 bcbd
00000250: f8ed f3bc a7c0 f03c 7e2e 5d3d bd2e 43bd
00000260: 9bfb 49bd 9077 6bbd db61 a13d 9787 96bd
00000270: b7f8 debc ff8f 4d3d 1eb0 50bd a8ea 823d
00000280: 0535 05be 0d23 04be 5cab a7bd c4fb 3f3e
00000290: ef2f ccbd ace2 cc3c c33f 253e 9b7e 7c3d
000002a0: b045 ef3d 5837 dd3d 5d60 0bbd 272f 09bb
000002b0: 2a8c b43d 20f5 913d a6ce 21be 03a4 de3d
000002c0: f2d6 cdbd b57a 55bd 8ac5 873c 4c15 21bd
000002d0: cc3a 913d 2a26 fabd 99e9 7abd 70cb 8fbd
000002e0: b686 fabd 22b0 66bd aaa0 2c3c def2 c9bd
000002f0: 3b98 10be c9ed 9abd 7164 f2bd 6bdc 48be
00000300: 9036 333d adee c2bd 47ed f93c 1303 1c3d
00000310: 4c56 283d 0ef0 a2bd 28fc 873d 8892 90bd
00000320: 670d 8dba 3ca1 af3d a466 89ba 6c25 57be
00000330: f263 173e 6536 9bbd f581 193c 4040 84bd
00000340: af49 0c3c b1c0 aabd 7da6 d43b 5be5 f5bc
00000350: c83a a8bb ef5d 533d aa50 7ebd 4a3a b03c
00000360: e4ca 31bd d181 0cbe b3fc 0f3d 2634 873d
00000370: 9476 7dbd 45ec 3c3d 73a2 a0bc 8c6e 773c
00000380: b830 63bd d183 d9bb 1524 583c 800f 2d3d
00000390: 8556 4a3c 6a75 1ebd 308a d93d 56a3 d83c
000003a0: 6f4f 33bd 7483 8ebd c286 a5bd a2a6 0abe
000003b0: d8df 0b3e 67b2 db3c 4e69 5abc b548 683d
000003c0: 9c0e d03d 2abd 87bd 77b5 8bbd dfed 4abd
000003d0: ef0d 5b3d b7e2 493d 0fc0 1dbd 912a ed3b
000003e0: 5473 f63c 9067 3ebe aed1 c6bb c6a6 293c
000003f0: 6b16 24bd 3610 503c ca67 5b3c 24d1 923c
-0.1805773 -0.043635476 -0.12970892 0.10136031 -0.12896885 0.081062175 0.025851231 -0.01744373
0.1761936 -0.009750141 -0.069322705 0.014685411 0.10142633 0.11537999 -0.08408193 0.024216805
-0.100764744 -0.17681904 0.064505614 0.06663042 0.05961794 -0.067399524 -0.14591564 -0.13089994
-0.07722767 -0.07716229 0.12355869 -0.005981792 -0.05277868 -0.051262807 0.12268645 -0.095891744
0.0071385032 -0.077214815 -0.02657639 0.009683386 0.065724865 -0.09738308 0.09097834 -0.0059536574
0.0104373535 0.07640824 -0.050301112 -0.163698 0.17435884 0.025859902 0.06695457 -0.0087943245
0.04054777 -0.0717778 0.013741398 -0.052373923 -0.021810286 0.02631998 -0.0761675 -0.04502787
-0.009393055 -0.0741662 -0.036063727 0.06299721 -0.0008528707 0.0669444 -0.07601225 0.09326815
0.08948617 -0.022108225 0.028486127 0.009702244 0.0728174 -0.12261139 0.06880424 -0.0387989
-0.06658895 0.08312945 -0.01060164 -0.0151129365 0.09807685 -0.039535735 -0.020062413 -0.02106946
0.11052322 0.009928894 0.055285256 -0.043331783 -0.060837545 0.043256234 -0.017139854 0.054247614
-0.038890153 -0.1537395 0.027161751 -0.00534402 0.00827474 0.053456075 0.008685587 -0.049782302
0.046154976 -0.002627316 0.06538275 0.032539204 0.047817588 -0.03156674 0.019742891 0.10100309
-0.024601929 0.01896669 -0.110361524 0.0027307435 0.027436366 -0.02455955 -0.010091377 -0.038191143
-0.023916729 -0.072716594 -0.09060864 -0.02361945 0.003627057 -0.0963161 -0.028101437 0.0040259026
-0.01430424 -0.013647426 0.08224445 -0.04085123 0.052980028 -0.00096968387 -0.023133952 -0.06747218
-0.018932415 -0.077748045 0.023205796 -0.03062451 0.052548677 -0.10848472 0.0066327443 0.07511985
-0.08231257 -0.021748433 -0.0043066675 -0.022685949 -0.015390334 0.026127791 0.0073117013 -0.07589788
-0.093864426 -0.06387489 0.0070194155 -0.0920491 -0.029776558 0.029388739 0.053999417 -0.047651995
-0.049312215 -0.05748707 0.078799926 -0.073500805 -0.027218206 0.050186154 -0.05094921 0.063924134
-0.13008507 -0.12903996 -0.08186981 0.18748385 -0.0997008 0.02501043 0.16137604 0.061644178
0.11683214 0.108015716 -0.034027446 -0.0020932646 0.08815797 0.07126832 -0.15801486 0.108711265
-0.10050763 -0.052118976 0.016573686 -0.03932695 0.07091293 -0.122143105 -0.061257932 -0.070212245
-0.12232725 -0.056320317 0.010536352 -0.09860776 -0.14120571 -0.07564885 -0.11835564 -0.19615333
0.043753207 -0.0951818 0.03050865 0.03808887 0.041097924 -0.07955943 0.06639892 -0.070591986
-0.001076144 0.08575675 -0.001048286 -0.21010369 0.1478422 -0.07578734 0.009369363 -0.06457567
0.008562489 -0.08337534 0.0064895735 -0.030016592 -0.0051339604 0.051603254 -0.062088646 0.02151217
-0.043406382 -0.13721396 0.035153102 0.066017434 -0.061880663 0.04612376 -0.019608712 0.01510204
-0.055466384 -0.006638028 0.013192196 0.04225111 0.012349729 -0.038686194 0.1062206 0.026445072
-0.043776926 -0.069586664 -0.08082344 -0.13540128 0.13659608 0.026818467 -0.013330771 0.056709964
0.101590365 -0.06627877 -0.06821721 -0.049543258 0.053480085 0.049288478 -0.03851324 0.0072377403
0.03008429 -0.18594193 -0.0060674762 0.010354703 -0.040060442 0.0126991775 0.013391444 0.017921992

model.space_nn.filters.bias f4 [32]
00000000: 3db1 7a3d 1eb6 9fbd 9eeb 1dbd 999d 843d
00000010: 7cbb 9f3c 5009 cbbd 2549 06bd 596f deba
00000020: e131 5f3c 8e8e 383d 2515 3e3d 503d c7bc
00000030: a604 293e 8829 36bd 346b 803d dd87 03bc
00000040: 195e d03c 962b 693d 424d e53c c190 c5ba
00000050: 3401 fcbc 005a 5dbd 242e a5bd fdb9 8a3d
00000060: 4e5c 35bd dc01 143c 5ec3 62bd 6ece 1e3c
00000070: 3629 ad3c 76d7 c3bd b908 6e3c 6dfe b73d
0.061204184 -0.07798408 -0.03855478 0.06475372 0.01949858 -0.099138856 -0.0327846 -0.001697044
0.013622732 0.045057826 0.046406884 -0.024321228 0.1650568 -0.0444732 0.062704474 -0.008027998
0.025435494 0.056926332 0.027990941 -0.0015073047 -0.030762292 -0.05404091 -0.08065441 0.06773756
-0.04427748 0.009033646 -0.055362098 0.009692771 0.021137815 -0.0956258 0.014528447 0.08984075

model.decoder.weight f4 [12, 32]
00000000: a45e 32be 4766 d7bd 72de cf3d 27a5 80bb
00000010: af94 b43c 1c07 443e d5a3 19bd 0502 03bc
00000020: 0460 183d 4bc0 65bd 36c7 833d 5987 713e
00000030: 8706 3abe b83c af3d 3989 27bd 9ca7 32be
00000040: f9b1 c93c fd79 173d c335 2b3e edf7 ccbd
00000050: 4705 adbd 312f a2bd 95ef 0d3d ad81 d5bd
00000060: af7c adbd baaa 69be 5db1 a6bd c511 dc3b
00000070: 2d5d 06be 5a17 dd3e 5331 fcbc ffa4 d7bd
00000080: 5d7f 583d c36d 1ebe 59af 953c cdd3 6fbd
00000090: e037 e63d 79a1 f23d b51c 29be cd42 23be
000000a0: dcbd 3a3d 9631 4cbc 9c73 403d 222a 8f3d
000000b0: a566 053e 20e0 a53d b7a3 8dbd 52a9 23be
000000c0: 6a0f b8bc d3aa e7bd 1ab6 fe3c 2d24 05be
000000d0: 5857 5abd c4c6 babd 69b4 1bbe c536 acbc
000000e0: d922 193d e262 e0bd 2856 1fbe 2c3f 913c
000000f0: 6f9d 88b9 e0d9 6e3e 49a2 003e 9991 febd
00000100: 43e5 f9bc 90f9 0bbe b78c e3bd 0ce8 ecbd
00000110: e6eb e8bc dd71 4d3d f672 24be 3b07 84bd
00000120: 85f1 7ebd aa00 0e3e 28ad 57bc 47c5 d83d
00000130: 5452 603c 698e 5b3d 7007 793d af5d 8dbd
00000140: 9c92 22bd d5ba cabd 86ba d63d b15f 5ebb
00000150: 1e8d 413d 160d d4bc c857 1cbd f50d 12be
00000160: 788e 69bd 285e 9bbd 0227 ccbd 1699 933d
00000170: f91a 90bc 403f 833e 42f5 b83d 727e 2ebe
00000180: 489a 383c 6025 62be 6326 b53c e53f a8bc
00000190: a4ac 0cbd 5a87 a83c 0b29 ce3c 9643 8b3d
000001a0: 4a89 07bd ed92 1f3e 1748 7bbd eb05 353e
000001b0: 8997 dd3d b530 d5bd 9549 89bd c950 1ebe
000001c0: 46e6 d9bd 6988 cebd 8c41 cb3d 928b 00be
000001d0: f8bb b0bd 7c33 ddbc 810c 413c d7b2 fabd
000001e0: 04e0 e8bc 7d13 e93c 8f4f e2bd 14a0 3c3d
000001f0: f9b8 1f3d 8657 e03d 8f1b 8b3d 0de4 c7bd
00000200: 58ff abbd 7f17 36be 2e4e 573d d57b 69bd
00000210: 71c7 853d b235 343d 9411 15bc 1cce 37bb
00000220: 7e46 f5bd 2555 883d 1ea8 32bd 759c 163e
00000230: 858d 48bc 8113 c2bd 81be e0bd 5525 3739
00000240: 9477 92bd 4dd8 fabd 7ea6 aa3c 021c 43bd
00000250: dba2 c3bc 5449 e4bd 0ec9 9fbd 68ba afbd
00000260: fff2 eb3c 6d74 d1bd 268b 03be c6dc fabc
00000270: f976 473d 8746 f439 fba6 8c3d 5a76 28be
00000280: 6ba0 39be 7557 0d3d 697b cbbd 4f44 a6bd
00000290: f566 4a3e 6dcd 03bd 7136 45be b6a7 c3bd
000002a0: ad7e 543c bd26 333b 4978 fcbc eba9 a4bc
000002b0: 49c8 513d 02db 5e3d 397c 9cbd a441 593d
000002c0: dde5 efbc bfc5 fcbc 59c4 023e 5d0c a43c
000002d0: 765b 0fbe 1103 20be 89ca 01be aaa2 2fbe
000002e0: be35 c1bd 4442 e2bd d827 5a3c 909c a6bd
000002f0: 5add d0bd 2135 9bbd 2ea1 213d 6d2b 47be
00000300: 0506 453d a51a 55bd d5bc 00be 4e59 f5bd
00000310: 6a51 cc3d 9aa6 1bbb 1ba4 a5bd 20fb 2b3d
00000320: c62d d2bd c158 a63d 9fc4 e8bc 7a76 243d
00000330: 5cc1 ea3d d0fd 80bd 1304 aa3d b592 513d
00000340: 989c a9bc d3f6 19be fc2a 843d 327d 05be
00000350: a319 b1bd 856b b5bd 3931 2ebe 2e14 e1bd
00000360: 2091 5bbd 2b68 083d 952f 9ebc a4da a53d
00000370: 99f1 1ebd 7436 10be e8c7 e53d 9a7b 57be
00000380: 25fb 59bd af4d 32be f892 a7bd 682e 3abe
00000390: 077c 843d 3150 213d 4929 dbbd 2fb6 fe3d
000003a0: 6dd9 5bbd fb83 823c 71c7 5abd 8472 053d
000003b0: 5277 da3d a518 ccbd a140 203d b4fc c13d
000003c0: 515a e0bc c7aa febd a7ae bb3d ab0d dcbd
000003d0: 73c2 ccbd aafa d9bd d3d9 eebd 1210 47bc
000003e0: ab5a 2bbe d3ad 943d 1925 77bd f2cb c53b
000003f0: 3142 96bc 6b3c 51be 623a ca3d e17d 66bd
-0.17418915 -0.10517555 0.1014985 -0.0039259377 0.022043554 0.19143337 -0.037509758 -0.007996087
0.037200943 -0.056091588 0.06434481 0.23586787 -0.18166552 0.08556503 -0.04090235 -0.1744675
0.024620997 0.03698157 0.16719727 -0.100082256 -0.08448272 -0.07919157 0.03465231 -0.10425124
-0.08471047 -0.22819033 -0.08139298 0.0067159855 -0.13121481 0.43181878 -0.030785238 -0.105295174
0.052855838 -0.15471558 0.018272089 -0.0585516 0.11241126 0.11847205 -0.16514857 -0.15943451
0.04559122 -0.012462994 0.046985254 0.06990458 0.13027437 0.08099389 -0.06915992 -0.1598256
-0.022468287 -0.11311879 0.031092692 -0.13002081 -0.053305954 -0.09119943 -0.1520554 -0.02102221
0.03738675 -0.109563604 -0.1556021 0.017730318 -0.0002605724 0.233253 0.12561907 -0.12430114
-0.030504828 -0.1366942 -0.111108236 -0.11567697 -0.028432798 0.050157417 -0.16059479 -0.064466916
-0.06224205 0.13867441 -0.013163842 0.10584503 0.013691504 0.05360261 0.06079811 -0.06902634
-0.0396906 -0.09898917 0.10484795 -0.0033931548 0.04725372 -0.025885146 -0.038169652 -0.14263137
-0.057020634 -0.07586318 -0.09968378 0.07206933 -0.017590987 0.25634193 0.09031154 -0.17040423
0.011267252 -0.2208457 0.02211303 -0.02053828 -0.03434433 0.020572353 0.025166055 0.068
-0.033089913 0.15583391 -0.061348047 0.17678039 0.10819919 -0.10409681 -0.06703488 -0.15460505
-0.10639624 -0.10084612 0.099246114 -0.12553242 -0.08629602 -0.027002089 0.011782766 -0.12241142
-0.028427131 0.028451676 -0.11050331 0.0460511 0.038994763 0.10954194 0.06792366 -0.09760294
-0.08398312 -0.177824 0.052564792 -0.05700286 0.06532181 0.04399652 -0.009098429 -0.0028046435
-0.11976336 0.06656865 -0.04361736 0.14708121 -0.012240772 -0.09476376 -0.10973836 0.00017466147
-0.07151714 -0.12248287 0.020831343 -0.047634132 -0.023881366 -0.11146799 -0.0780202 -0.08580476
0.028802393 -0.102272846 -0.1284605 -0.030622851 0.048697446 0.00046591854 0.068677865 -0.16451398
-0.18127601 0.034507234 -0.09935648 -0.081184976 0.19765837 -0.03217833 -0.19259049 -0.09553473
0.012969655 0.0027336322 -0.030819075 -0.020100554 0.051216397 0.05440808 -0.07640881 0.053041115
-0.029284412 -0.030856011 0.12770213 0.020025427 -0.13999733 -0.1562617 -0.12674917 -0.17151895
-0.09434079 -0.110477954 0.013315164 -0.08135331 -0.101984695 -0.07578493 0.039460354 -0.1945016
0.048101444 -0.052027363 -0.12572034 -0.11979924 0.09976466 -0.0023750425 -0.08087941 0.04198754
-0.10262637 0.08122397 -0.028414069 0.04015205 0.114626616 -0.06298411 0.08301558 0.0511653
-0.020704553 -0.15035562 0.06453511 -0.1303604 -0.08647468 -0.08858398 -0.17010964 -0.10990177
-0.0536052 0.033302467 -0.019309798 0.08098343 -0.038804624 -0.14083272 0.1121977 -0.21043244
-0.053218026 -0.17412446 -0.08182329 -0.18181765 0.06468969 0.039383117 -0.10701234 0.124370925
-0.05367415 0.015932074 -0.05341286 0.032579914 0.1066729 -0.09965638 0.039124135 0.094720274
-0.027386816 -0.12434917 0.09164172 -0.107447945 -0.09998026 -0.106435135 -0.116626404 -0.012149828
-0.16733806 0.07259717 -0.060338113 0.006036275 -0.01834211 -0.20433204 0.09874417 -0.05627239

model.decoder.bias f4 [12]
00000000: ce3d 553d bf61 87bd 014b b1bc 2980 2bbd
00000010: bb6d 9bbc 7270 e2bc b8d6 82bd 534f abbd
00000020: 4a09 19bd c045 22bd ea45 8ebd f0db ef3c
0.052060895 -0.066104405 -0.02164221 -0.04187027 -0.018973222 -0.027641509 -0.063886106 -0.08364739
-0.037362374 -0.0396173 -0.06946929 0.029279679

exp_avg f4 [32, 1]
00000000: 2211 253c 5568 153b d35e 03bc c42c 9fbb
00000010: fcc3 7cbc 3d01 56bc 4090 e5b9 22d4 08bc
00000020: c47a 84bb 38f1 71bc ea11 ee3b acd7 f4b9
00000030: 72e2 7b3a ef32 bd3c 3ebc 263b d4bf e93a
00000040: d118 c3bb 6268 49bc 48ef e1b9 53a7 39bc
00000050: 3ccf 81bc 5f75 283a 9c65 dc3b 061c 9a3a
00000060: c145 eb3b d021 aa3b 49a6 b6bb 0e94 3dbb
00000070: d2e7 8e3c 9659 5c3c d127 243c 14c2 1abb
0.010074886 0.0022797782 -0.008018213 -0.0048576314 -0.015427586 -0.013061819 -0.00043785758 -0.008351358
-0.004042955 -0.014766984 0.007265319 -0.00046699995 0.0009608633 0.023095576 0.002544179 0.0017833658
-0.005953886 -0.012292953 -0.00043093623 -0.011331397 -0.015845887 0.0006426181 0.00672598 0.0011757619
0.007179946 0.005192019 -0.005574022 -0.0028927359 0.017444525 0.013449093 0.010019259 -0.0023614215

exp_avg_sq f4 [32, 1]
00000000: d986 803b a56a 2f3b 3590 4b3a be4b b03a
00000010: aee0 a23b 54d8 1a3c 9a9a 4c3b faf2 683c
00000020: e36f 043b 6e35 4f3b 45a0 923b 7fc5 0f3c
00000030: 2b9d 0d3b 7de0 353c 8031 913a 7a15 a43a
00000040: b8e9 063b 7ec1 a43b af97 593a 042b 813b
00000050: 5a0b 3f3c 4e8b 873a af2e b73a 2a41 ab39
00000060: 4558 e63a 908c 4d3b f8c1 f83a dc73 a13b
00000070: c11b 033c 2288 b23b eaac dc3b af67 293b
0.003922325 0.0026766446 0.0007765324 0.0013450307 0.0049706316 0.009450991 0.003122008 0.014218086
0.0020208291 0.003161754 0.004474672 0.008775114 0.0021608572 0.011100885 0.0011077374 0.0012518608
0.0020586085 0.005027949 0.00083004957 0.0039418954 0.011660421 0.0010341199 0.0013975705 0.00032664213
0.0017573914 0.00313643 0.0018978706 0.0049271416 0.0080022225 0.005448357 0.00673448 0.0025849154

exp_avg f4 [32]
00000000: 0083 16bc 96f5 753b bc7d 053b d8cf a13b
00000010: 07c8 4a3c eed0 cd3b f69f 01bc be97 b23c
00000020: 3f51 b5bb 6ec1 ae3c 59ca 91bc 9669 703c
00000030: 6650 c0bb 3069 dbbc 7053 17bc 9e8b 28bb
00000040: 1a66 9b3c f806 ad3c e97b d93b 9e0d 253c
00000050: 643e 0ebb d4b3 7b3b 07f2 9dbb 78f6 a8ba
00000060: 1688 e9bb 5ca3 27bc ed2b 2d3c 3f57 673c
00000070: d34e 583c e1f8 98bb bcf3 403c a1c1 b4bb
-0.009186506 0.0037530414 0.0020369133 0.004938107 0.012376792 0.00628101 -0.007911673 0.021800872
-0.005533367 0.021332469 -0.017796682 0.014673611 -0.0058689592 -0.026783556 -0.009236202 -0.0025717984
0.018969584 0.021121487 0.0066370857 0.010074047 -0.0021704668 0.0038406746 -0.0048201117 -0.0012890836
-0.0071268184 -0.010231819 0.010569555 0.014119922 0.013202387 -0.0046683406 0.011776861 -0.0055162464

exp_avg_sq f4 [32]
00000000: 6543 913b cc0b 883a ad3a 0c3a 2994 973a
00000010: 515f 993b 70c4 063b b207 433b bf76 c53c
00000020: 8f1b b23b b281 2a3c d675 8c3c 0917 653c
00000030: d359 4d3b e6fe 3d3c 2aea 803b 18f9 ee39
00000040: 49ef 953c 1f85 4e3c 9a51 033b d89c 723b
00000050: eb8e d83c c782 073b 9509 8c3a 1b7c 8939
00000060: 1cdf 563a 62a9 bb3b 8714 c73b db79 3f3c
00000070: f775 823c 62ea e13a f592 e03c af1a 863b
0.004433083 0.0010379492 0.00053493195 0.0011564541 0.004680552 0.0020563863 0.0029759225 0.024104474
0.005435414 0.010406898 0.017146032 0.013982543 0.0031334057 0.011596417 0.0039341645 0.00045580487
0.018302577 0.012604981 0.0020037652 0.0037019756 0.026435336 0.0020677315 0.0010684008 0.00026223142
0.0008196698 0.005726979 0.006075445 0.011686767 0.01592539 0.0017235989 0.027413825 0.0040925364

exp_avg f4 [207, 32]
00000000: 1998 7639 069d bfb9 84e8 ffb7 ca33 c037
00000010: c53e 7db9 69eb 00ba 935b a5b9 9285 e3b9
00000020: b18e 25b9 2cf3 48b8 6ea5 1239 6d8d b138
00000030: f464 39b8 d823 f839 4414 34b8 35f7 e5b8
00000040: 9b82 9b39 deb0 efb8 7d9e 1fb9 4496 f0b7
00000050: bab8 e5b9 cff9 0f38 54c2 a3b8 8e6b 3839
00000060: bd14 d2b8 0d80 9c38 2978 5539 a409 87b8
00000070: 8ecc 013a 848b c139 acf5 4939 a105 1e38
00000080: dada 86b7 f10c ccb7 70e4 1939 644a 20b9
00000090: 52a7 6938 76be 47b8 748d 06b9 6b35 8e38
000000a0: b451 9336 4071 5139 6f1d 24b8 bbae 0fb9
000000b0: 14cd 9738 5086 0bb9 1d04 aa38 54eb 9837
000000c0: 184a df38 bb8c 1537 acb7 dc36 e48d 0f38
000000d0: 7c83 0c38 fcaf 5538 2e29 8f38 06d9 83b8
000000e0: 5468 4237 d0fe 36b6 3fa2 1038 055a 2ab8
000000f0: 7468 8738 d59f 9fb8 dc04 91b8 5486 2e38
00000100: 31e0 85b8 eff4 8538 de34 36b8 e3fa ce38
00000110: aa8b 3a38 aafa 1239 2a9f 7e38 4d07 2839
00000120: 81fa 9cb8 b0f4 2037 e196 37b9 aa95 9239
00000130: 9b52 d6b8 66db 00b9 df10 34b9 754e 38b9
00000140: dcdb da38 5f75 1839 f013 68b8 8ab9 7638
00000150: 6833 2e37 57a5 11b8 22e7 b6b8 12a0 0ab8
00000160: 8ea6 0536 2e22 5cb9 fe3c a838 4581 7739
00000170: dc60 4ab7 f42b 9238 74d5 8a39 08fa 28b9
00000180: 3094 e2b7 681b 77b7 d298 5939 5d05 48b9
00000190: c2d6 ff38 48a6 8338 64fc 8ab9 4f55 9839
000001a0: a58c 8b39 6ada ee39 6160 0739 8e62 4db9
000001b0: 403d 08b8 fc9a 95b9 ece4 f438 50d4 d838
000001c0: d13d 8db8 92d7 0b39 153e e538 58cb cf37
000001d0: 0ed4 f039 90ac 6ab9 427f f7b8 935f 01b9
000001e0: 0060 9938 ac99 5fb8 6837 27b7 b2a8 06b9
000001f0: c2bc 38b9 1444 2ab9 bd40 14ba 046b 0a39
00000200: 6493 e7b8 fe35 0739 ba16 3138 cdaf 6638
00000210: 7511 7839 1c43 8f38 0db6 7339 9104 ffb8
00000220: f09e a1b6 c158 4db9 b481 b6b8 9f68 ee38
00000230: 8137 ccb8 a22f 4cb9 d06b a7b8 f6d4 3838
00000240: ec44 fa38 b599 3438 e796 98b8 8ea9 a0b6
00000250: c3d9 eeb9 92c2 04b8 6a6b ffb8 73db 3c38
00000260: 6e00 61b8 9c02 9bb8 3c47 15b8 6c00 4637
00000270: 2e4a 4db9 4ce3 91b8 403d 8239 9bb6 c2b7
00000280: 69b7 1eb9 beb0 1fb8 9bcb 31b9 7886 9939
00000290: e516 dd38 aded 9b39 5d6f 0139 487a 6d39
000002a0: a7e8 fdb8 fa16 2238 4872 8eb9 62bc a738
000002b0: aa0f 2cb8 c429 7bb9 3a06 29b9 5c53 bd37
000002c0: 8c06 0838 72ac 4839 c325 2d38 8c1d 4439
000002d0: 136f b539 07fc 0e39 0882 d7b8 688f 2d38
000002e0: 24f1 89b8 e2bc 0db9 3000 1c38 b318 7a39
000002f0: 1237 fab8 0b1b 1cb9 8933 cc38 825c 53b8
00000300: 84d6 bfb8 f083 92b6 809d e7b8 67a0 8c39
00000310: 73cf 9839 c660 9e38 6fb6 5939 c232 85b7
00000320: ba74 91b8 ca13 2838 32d9 06b9 b2f4 2f38
00000330: d844 7d38 0163 96b9 fda8 51b8 9636 1939
00000340: a033 d638 715f 9039 c090 88b6 783a 4837
00000350: 8fcc 89b9 6751 9239 cc55 a237 ec0f 78b7
00000360: 868d 2ab9 d2cf 16b8 5278 8eb7 b12f f738
00000370: 1897 1636 ed58 2db9 0336 3639 a4d9 46b7
00000380: db07 9eb7 f5d8 84b8 ecc8 2ab8 65fc 1fb8
00000390: d45d b138 ecef 21b8 9333 ddb8 4a5a dc37
000003a0: 1864 8cb8 5934 7839 3b7b 14b9 261a 3738
000003b0: 4517 e6b8 8e3b edb8 1d02 8db8 548f 2437
000003c0: 6370 2c39 9fbc b438 3c5f da37 c763 ad38
000003d0: 8c2d a1b8 b2f9 9f38 4fc8 a6b7 13e5 14b8
000003e0: a484 16b9 9ec0 86b8 c431 0739 920b 8d38
000003f0: b4e8 7f39 1f0d 21b8 9c5e ef37 265c b037
0.00023517049 -0.0003654735 -3.0506642e-05 2.29123e-05 -0.00024151344 -0.00049178913 -0.0003153948 -0.00043396332
-0.00015788783 -4.7910187e-05 0.00013985272 8.46636e-05 -4.4201457e-05 0.00047328952 -4.2934218e-05 -0.00010965617
0.00029661212 -0.00011429352 -0.00015222463 -2.8680202e-05 -0.00043815916 3.432651e-05 -7.808642e-05 0.00017587675
-0.00010017443 7.462511e-05 0.00020358026 -6.439097e-05 0.00049514405 0.00036915776 0.00019260374 3.7675378e-05
-1.6075956e-05 -2.4324721e-05 0.00014676317 -0.00015286502 5.5707358e-05 -4.7622678e-05 -0.00012831931 6.7810375e-05
4.390453e-06 0.00019973982 -3.912806e-05 -0.00013702635 7.23844e-05 -0.00013306108 8.106998e-05 1.8229395e-05
0.0001064727 8.913858e-06 6.577893e-06 3.4226003e-05 3.3501055e-05 5.0947056e-05 6.826442e-05 -6.2869905e-05
1.1587592e-05 -2.7268434e-06 3.448338e-05 -4.0614996e-05 6.4567575e-05 -7.611482e-05 -6.915044e-05 4.1609936e-05
-6.383693e-05 6.387557e-05 -4.3441418e-05 9.869577e-05 4.4475928e-05 0.00014017025 6.0706552e-05 0.00016024448
-7.48532e-05 9.593714e-06 -0.00017508447 0.00027958798 -0.00010219702 -0.00012288764 -0.00017172423 -0.00017576835
0.00010436002 0.00014539574 -5.533168e-05 5.8823767e-05 1.0383177e-05 -3.472468e-05 -8.721488e-05 -3.305084e-05
1.9915492e-06 -0.00020993568 8.022225e-05 0.00023603912 -1.206269e-05 6.9700094e-05 0.00026480446 -0.00016114872
-2.7010305e-05 -1.4728728e-05 0.00020751663 -0.00019075484 0.00012199349 6.277539e-05 -0.00026509457 0.0002905526
0.00026616934 0.0004555763 0.00012910507 -0.00019587038 -3.248197e-05 -0.00028534967 0.00011677467 0.00010339229
-6.734918e-05 0.00013336379 0.000109311346 2.4771012e-05 0.0004593436 -0.00022380264 -0.000118015814 -0.00012338003
7.31349e-05 -5.331046e-05 -9.966876e-06 -0.0001284208 -0.00017617925 -0.00016237824 -0.00056553987 0.00013200572
-0.00011042392 0.00012894717 4.2221254e-05 5.5e-05 0.00023657626 6.8312715e-05 0.00023242105 -0.00012160198
-4.8166767e-06 -0.00019583387 -8.7025954e-05 0.000113682116 -9.7378164e-05 -0.000194727 -7.983262e-05 4.4067354e-05
0.00011933767 4.3058495e-05 -7.2760326e-05 -4.7881103e-06 -0.00045557143 -3.165246e-05 -0.00012179355 4.502707e-05
-5.364458e-05 -7.391462e-05 -3.559071e-05 1.1801818e-05 -0.00019577958 -6.956476e-05 0.00024841167 -2.3211634e-05
-0.0001513638 -3.8073158e-05 -0.00016955884 0.0002928262 0.000105423656 0.00029740986 0.00012343885 0.00022647635
-0.00012107315 3.864521e-05 -0.00027169497 7.9982696e-05 -4.1022584e-05 -0.00023952784 -0.00016119416 2.2569373e-05
3.2431024e-05 0.00019137727 4.1281583e-05 0.00018703024 0.00034605767 0.00013636063 -0.00010276219 4.137997e-05
-6.577585e-05 -0.00013517172 3.7193473e-05 0.00023851059 -0.000119311866 -0.00014887394 9.737077e-05 -5.0392475e-05
-9.1475464e-05 -4.3664986e-06 -0.00011044275 0.0002682239 0.0002914626 7.5520526e-05 0.00020762694 -1.5878471e-05
-6.935881e-05 4.007275e-05 -0.00012860147 4.195114e-05 6.0384016e-05 -0.00028683993 -4.9986866e-05 0.00014611552
0.00010213931 0.0002753693 -4.069967e-06 1.1934542e-05 -0.00026283084 0.0002790794 1.9351857e-05 -1.4785659e-05
-0.00016265185 -3.5956335e-05 -1.6983748e-05 0.00011786761 2.243969e-06 -0.00016531693 0.00017376993 -1.1852393e-05
-1.8838726e-05 -6.334662e-05 -4.071828e-05 -3.8143615e-05 8.4574946e-05 -3.8608836e-05 -0.00010547708 2.6268088e-05
-6.694364e-05 0.00023670624 -0.00014160287 4.3654953e-05 -0.00010971589 -0.000113121336 -6.7237976e-05 9.808533e-06
0.00016445066 8.618202e-05 2.6031972e-05 8.267868e-05 -7.685562e-05 7.62822e-05 -1.9882018e-05 -3.549929e-05
-0.00014354527 -6.425496e-05 0.00012893142 6.725559e-05 0.00024405384 -3.839761e-05 2.8535076e-05 2.1023745e-05
